output/test/model.pt (torch, 158175 bytes, 65 tensors)

embedder.emb_rnn.weight_ih_l0 f4 [60, 5]
0	0x3eb28e3c	0.3487414
1	0x3e478a99	0.19486465
2	0xbe43f656	-0.19136938
3	0x3db13ec8	0.08654553
4	0x3ee86b1f	0.45394227
5	0x3e3fcfc8	0.18731606
6	0xbe617b99	-0.22019805
7	0xbd378976	-0.044808827
8	0xbe6f5b9d	-0.23374791
9	0x3d4e417a	0.050355412
10	0xbc29bf21	-0.01036051
11	0xbe454291	-0.19263674
12	0x3e851389	0.25991467
13	0x3ed3a909	0.413399
14	0xbdfe21f5	-0.124088205
15	0xbce23838	-0.027614698
16	0xbe9f2131	-0.3108001
17	0x3d671332	0.05641479
18	0x3d437e98	0.04772815
19	0x3d9932a4	0.07480362
20	0xbf5af037	-0.8552279
21	0xbf7d644c	-0.98981166
22	0xbefd248e	-0.49441952
23	0x3fce350d	1.610994
24	0xbcd4fb53	-0.025998747
25	0xbcf1ebf7	-0.029531462
26	0xbee132cc	-0.43984067
27	0xbea5346a	-0.3226655
28	0xbee4439c	-0.44582832
29	0x3ea198a6	0.31561774
30	0xbe4a5974	-0.19760686
31	0xbf0a66ff	-0.5406341
32	0x3ef731b3	0.48280105
33	0x3ef67b2f	0.48140857
34	0x3f1314e0	0.5745373
35	0x3c0482fe	0.008087872
36	0x3e1f115c	0.15533966
37	0xbf4d1c83	-0.8012163
38	0x3cd931c5	0.02651299
39	0xbf08ab83	-0.53386706
40	0x3f36c812	0.71399033
41	0x3fcdf77f	1.6091155
42	0x3f00f69a	0.50376284
43	0xbe818148	-0.25293946
44	0x3f065401	0.5247193
45	0x3db4d692	0.088299885
46	0x3e078a37	0.13236319
47	0x3eceea4e	0.40413135
48	0xbf5d44c0	-0.8643303
49	0x3ead9b66	0.33907622
50	0x3ea48399	0.3213165
51	0x3e5de10c	0.2166788
52	0x3e2ae233	0.1668785
53	0x3e44ef84	0.19231993
54	0x3dfaba2a	0.12242539
55	0x3e7525ad	0.23940153
56	0xbe404370	-0.18775725
57	0x3c30cb7f	0.010790705
58	0xbed44806	-0.414612
59	0x3f13ae02	0.5768739
60	0xbe65766b	-0.22408454
61	0xbcfe9760	-0.03107804
62	0x3becda77	0.0072281915
63	0xbddc8f5b	-0.107695304
64	0xbd89a9ca	-0.06721838
65	0x3f73963b	0.9515111
66	0xbeab062a	-0.3340314
67	0x3f458e90	0.7717066
68	0x3e52974c	0.20565528
69	0x3eb88002	0.36035162
70	0x3eeafb48	0.45894837
71	0x3d1e222e	0.038606815
72	0x3e86e8bd	0.2634944
73	0xbe96fc45	-0.2948934
74	0xbddd139c	-0.10794756
75	0x3d82751f	0.06369995
76	0xbdcbd062	-0.09951855
77	0xbec001a8	-0.37501264
78	0xbe36477d	-0.17800708
79	0xbd2d5098	-0.04231319
80	0x3dae4cfc	0.08510777
81	0x3ee508b4	0.44733202
82	0x3e5cbffc	0.21557611
83	0x3ea68e50	0.3253045
84	0xbe8d1d12	-0.2756124
85	0xbf599b29	-0.8500238
86	0x3dc94bc2	0.09828903
87	0x3b8fa161	0.0043832515
88	0xbf169961	-0.5882779
89	0xbeddb01f	-0.43298432
90	0x3e75ee84	0.24016768
91	0x3ee4c388	0.44680429
92	0x3ef3a67d	0.47587958
93	0xbdf38708	-0.118909895
94	0x3e4b88e5	0.1987644
95	0x3f6e2532	0.93025506
96	0x3dd422a0	0.10358167
97	0x3f37ef15	0.71849185
98	0x3dbffa81	0.09373952
99	0xbe67e92d	-0.22647543
100	0x3db6316a	0.08896144
101	0x3f15c7a6	0.58507764
102	0x3e0489f6	0.12943253
103	0xbf8b180a	-1.0866711
104	0x3f329ae2	0.6976758
105	0xbfc1a7e3	-1.512936
106	0xbf2a40c1	-0.66505057
107	0x3fc08151	1.5039464
108	0xbe8dab0d	-0.27669564
109	0x3e40fd2d	0.18846579
110	0xbe40e756	-0.18838248
111	0xbe4dbcbf	-0.20091532
112	0xbf73614c	-0.9507034
113	0xbf49a213	-0.7876293
114	0x3ed0fa56	0.4081599
115	0x3ee0e027	0.43921015
116	0xbe39c72b	-0.18142383
117	0x3d9874ce	0.07444154
118	0x3e56b216	0.20966372
119	0xbe7fa7f0	-0.24966407
120	0x3fc4a097	1.5361508
121	0x3faa6d44	1.3314595
122	0xbf99c157	-1.2012128
123	0xbf39cc6f	-0.72577566
124	0xbf2aaa19	-0.666658
125	0xbe910012	-0.28320366
126	0xbfd42b86	-1.6575782
127	0x3f9550ed	1.1665322
128	0x3eb95214	0.36195433
129	0xbf7c4e87	-0.98557323
130	0xbf12aff9	-0.5729976
131	0x3e8441a1	0.2583132
132	0xc018c802	-2.3872075
133	0xbf339190	-0.70143986
134	0x3e3d0f65	0.18462904
135	0xbe7e7d30	-0.24852443
136	0xbeacd5d9	-0.33756903
137	0x3ede95f6	0.43473786
138	0xbeaf8603	-0.3428193
139	0x3f094d90	0.53633976
140	0x3f848c4e	1.0355318
141	0xbfdd422f	-1.7285823
142	0xbf9b6124	-1.213902
143	0xbd1fa2b6	-0.038973533
144	0x3fabd898	1.3425474
145	0xbf3c9f9d	-0.7368105
146	0x3fbc9119	1.473178
147	0xc0171f01	-2.3612673
148	0xbfb1aced	-1.3880898
149	0xbe174784	-0.14773375
150	0x3f999154	1.1997476
151	0xbf10d43e	-0.56573856
152	0xbf85f8e2	-1.0466578
153	0x3ecd243b	0.40066704
154	0x3f081031	0.53149706
155	0xbfa52f1c	-1.2905002
156	0xbf9aa94d	-1.2082916
157	0x3f833569	1.0250674
158	0x3ec77c37	0.38961956
159	0x3f12a495	0.5728238
160	0xbedf70cf	-0.43640754
161	0xbf4a7b2c	-0.79094195
162	0xc034c858	-2.824728
163	0xbfb33b58	-1.4002485
164	0xbd526d10	-0.05137354
165	0xbfac9a0f	-1.3484515
166	0x4007ac5f	2.1198957
167	0x3f32c701	0.69834906
168	0xbf951e22	-1.1649821
169	0xbe9ade4c	-0.30247724
170	0x3f46007f	0.77344507
171	0x3f7c9e56	0.986791
172	0xbed076d9	-0.40715674
173	0x3ce0d387	0.027444614
174	0x3e569d40	0.20958424
175	0x3e36ee7e	0.17864415
176	0x3d90704b	0.07052668
177	0xbf900064	-1.1250119
178	0xbe103ea4	-0.14086396
179	0x3e7b2eba	0.24529544
180	0xbeba5be2	-0.36398226
181	0xbec7f347	-0.39052793
182	0x3f01ae7b	0.5065686
183	0xbe42e1f6	-0.1903151
184	0xbeba5517	-0.36393043
185	0xbe0342cc	-0.1281845
186	0xbe0a29f0	-0.1349256
187	0x3e8b17b1	0.27166513
188	0xbef69fe2	-0.48168856
189	0xbf3c4657	-0.7354483
190	0x3d6d81c4	0.057985082
191	0xbea0cac1	-0.3140469
192	0xbea29df1	-0.31761125
193	0xbd8cfbd1	-0.06883968
194	0xbee93704	-0.45549786
195	0x402b11e3	2.6729667
196	0xbf19432b	-0.59868115
197	0xbfb8a085	-1.4423987
198	0xbf1eecda	-0.62080157
199	0xbf4d5506	-0.8020786
200	0xbec29f68	-0.38012242
201	0xbf11a0d0	-0.56886005
202	0xbdfddb67	-0.12395363
203	0xbe9b73c5	-0.30361763
204	0xbeab3102	-0.33435827
205	0x3f0600be	0.5234488
206	0x3e4ff383	0.20307736
207	0x3e5d4f24	0.21612221
208	0x3e2e4bf2	0.17021158
209	0x3e7367fb	0.23770134
210	0xbe93fc72	-0.28903538
211	0x3e828db5	0.2549874
212	0x3ce9a803	0.028522497
213	0xbd47add3	-0.048749756
214	0x3e9329d4	0.2874285
215	0xbe82e4a4	-0.25565064
216	0x3d6774dc	0.05650793
217	0xbe3d9da1	-0.18517162
218	0x3e2904e2	0.16505769
219	0x3e59f9bd	0.21286674
220	0xbf1866c4	-0.5953181
221	0xbf88ed97	-1.0697507
222	0xbf99913f	-1.199745
223	0x3ffad8d5	1.9597422
224	0x3e7a8e16	0.24468264
225	0xbe66511e	-0.22491881
226	0x3e982197	0.29713127
227	0x3d4927e2	0.0491103
228	0x3e1198b7	0.14218412
229	0xbf2d3d61	-0.6767178
230	0xbdecd82e	-0.115646705
231	0xbf23d114	-0.639909
232	0x3fa1ae9f	1.2631415
233	0x3d3e9e92	0.046537943
234	0xbeeb3468	-0.4593842
235	0x3e6e3e45	0.23265941
236	0xbe392adf	-0.1808276
237	0xbe0eb897	-0.13937603
238	0xbe12c357	-0.14332329
239	0xbe9d6cfb	-0.30747208
240	0xbf399948	-0.72499514
241	0x3f74ea7a	0.9567028
242	0x3f707c5c	0.9393976
243	0x3db080ba	0.08618303
244	0x3e94464d	0.28959885
245	0xbe7a9778	-0.24471843
246	0xbed46887	-0.41485998
247	0xbea5b58e	-0.32365078
248	0xbd07afd0	-0.033126652
249	0x3d9e0d72	0.07717408
250	0xbe8b154b	-0.27164683
251	0x3f37c130	0.71779156
252	0xbc978a09	-0.018498437
253	0x3e8e7a21	0.27827552
254	0xbe422eff	-0.1896324
255	0x3ecf8964	0.40534508

embedder.emb_rnn.weight_hh_l0 f4 [60, 20]
0	0xbd985d8b	-0.07439717
1	0xbe8ac48f	-0.27103087
2	0x3e6c3e99	0.23070754
3	0xbd4a2bcf	-0.049358185
4	0xbe60a627	-0.21938382
5	0xbe8d6125	-0.27613178
6	0xbc6198ef	-0.013769372
7	0xbeaf04bf	-0.34183308
8	0x3e21ba10	0.15793633
9	0x3e075236	0.13214955
10	0x3e37b7bc	0.17941183
11	0x3e2dd1ab	0.16974513
12	0xbd8eccf6	-0.06972687
13	0xbd86faa2	-0.06590773
14	0x3de8ab87	0.11360841
15	0x3d863a4d	0.06554089
16	0x3e70ecd5	0.23527844
17	0xbe3b4ae2	-0.18290284
18	0x3d003eac	0.03130977
19	0xbd853eba	-0.06506105
20	0x3d118724	0.03552927
21	0xbe2bf969	-0.16794361
22	0x3e9b2a22	0.30305582
23	0xbdf7fb11	-0.12108434
24	0x3d873f1a	0.066038325
25	0x3e4f40cb	0.2023956
26	0xbe9801e8	-0.29688954
27	0x3b926a6f	0.0044682543
28	0xbe61187a	-0.21981993
29	0x3d391591	0.045186583
30	0x3e5dd3bc	0.21662802
31	0xbdbf3438	-0.09336132
32	0xbcc93143	-0.024559623
33	0xbe1b5cf0	-0.15172172
34	0x3dd0e611	0.10200132
35	0xbdca2d09	-0.09871871
36	0xbe839146	-0.25696772
37	0x3e3a7a76	0.18210778
38	0x3debe738	0.11518711
39	0x3d3afa6e	0.045648985
40	0x3e0d76f6	0.13814911
41	0x3c994bca	0.018712897
42	0x3ea08483	0.31351098
43	0x3df6732c	0.12033686
44	0xbc82800b	-0.015930196
45	0x3b289a83	0.0025726862
46	0x3ca51445	0.020151267
47	0xbe668623	-0.22512107
48	0x3e0ad605	0.13558204
49	0xbc111d5f	-0.0088571
50	0x3d08a10d	0.033356715
51	0x3e3a0323	0.18165259
52	0xbe147e6d	-0.14501353
53	0xbe8d823f	-0.27638432
54	0xbeec6e59	-0.4617794
55	0x3dfe51df	0.124179594
56	0xbdfeaf4f	-0.12435781
57	0xbe5e3b1c	-0.21702236
58	0x3e8023a8	0.25027204
59	0xbc620e63	-0.013797375
60	0x3dda052e	0.10645519
61	0x3e3629fa	0.1778945
62	0xbe3279ca	-0.17429271
63	0x3d46d7ce	0.04854565
64	0x3da54589	0.080699034
65	0xbed0a585	-0.4075128
66	0xbe8014e6	-0.25015944
67	0xbd7995ac	-0.060933754
68	0xbbbe77ef	-0.005812637
69	0xbebeb390	-0.3724637
70	0xbea5333e	-0.32265657
71	0x3e8a38dd	0.26996508
72	0x3dc1e2a3	0.09467056
73	0xbeba3951	-0.36371854
74	0x3bc11e8e	0.005893535
75	0xbe9e3c69	-0.30905464
76	0xbe372b82	-0.1788769
77	0xbe95077e	-0.2910728
78	0x3e4a07d2	0.19729546
79	0xbd84b803	-0.0648041
80	0x3e88a6f9	0.2668989
81	0xbe7f62bf	-0.24940012
82	0x3d93328a	0.07187374
83	0xbebb2306	-0.36550158
84	0x3ead64f8	0.33866096
85	0xbdf1ef88	-0.11813265
86	0xbdc59912	-0.096483365
87	0x3dd6f5ac	0.10496077
88	0xbdf4a662	-0.119457975
89	0xbd8f1dde	-0.069881186
90	0xbe70e463	-0.23524623
91	0xbe5565ae	-0.20839569
92	0x3d397063	0.045273196
93	0x3e378eb0	0.17925525
94	0xbe90acfe	-0.28256983
95	0xbe807abd	-0.25093642
96	0x3db09324	0.08621815
97	0xbee29625	-0.44255176
98	0xbedc9cb8	-0.43088317
99	0xbd7a85a6	-0.061162613
100	0x3e0742ae	0.1320903
101	0xbe04181e	-0.12899825
102	0x3d5e9bcd	0.054347802
103	0xbd8dc01d	-0.06921408
104	0xbe976b8a	-0.29574233
105	0xbd8420df	-0.06451582
106	0x3e00cee6	0.12578925
107	0xbe4a9627	-0.19783841
108	0x3d5e587c	0.054283604
109	0x3e220272	0.15821245
110	0xbdcd99e7	-0.1003912
111	0xbee7d472	-0.4527927
112	0x3d350253	0.04419167
113	0x3eb4dabb	0.35323128
114	0x3e24d0a8	0.16095221
115	0xbe1230fe	-0.14276502
116	0xbea45043	-0.32092485
117	0xbce2f86a	-0.027706344
118	0xbe5bbe1f	-0.21459244
119	0xbcffd086	-0.031227361
120	0xbe7a9376	-0.24470314
121	0x3dc79360	0.097449064
122	0x3e16e694	0.14736396
123	0xb9d1a4a9	-0.00039986268
124	0x3dce3713	0.10069098
125	0x3d462bcb	0.048381608
126	0xbe3dd35d	-0.1853766
127	0x3d8cb96b	0.06871303
128	0xbd49acf4	-0.049237207
129	0x3c971cd8	0.018446371
130	0x3dbc3dcc	0.09191474
131	0xbedfc9ed	-0.43708745
132	0x3ec7f95c	0.39057434
133	0x3cf4acd1	0.029867562
134	0xbda133a7	-0.0787118
135	0xbcf25cec	-0.029585324
136	0x3e8646c7	0.26225874
137	0xbe4e81bc	-0.20166677
138	0x3e630a9a	0.22172013
139	0x3f450819	0.7696548
140	0x3e3ace55	0.18242772
141	0x3daebbb0	0.08531892
142	0xbe267455	-0.16255315
143	0xbe40d15c	-0.18829864
144	0x3e2e130b	0.16999452
145	0x3e3ab830	0.18234324
146	0x3d86610e	0.065614805
147	0x3a0ec45c	0.000544613
148	0x3c0f36b5	0.0087410705
149	0x3d60a802	0.054847725
150	0x3dc33f54	0.09533563
151	0xbe6beedf	-0.23040341
152	0xbd8c915b	-0.06863662
153	0xbdf637e6	-0.120223805
154	0xbdddd21c	-0.10831091
155	0xbd939af8	-0.07207292
156	0x3c9985c4	0.018740542
157	0xbe2ec022	-0.1706548
158	0xbe4e52f4	-0.20148832
159	0x3e3ae6c5	0.18252094
160	0xbe946159	-0.2898052
161	0xbea694ab	-0.325353
162	0xbc85243c	-0.01625263
163	0xbe9f32a2	-0.31093317
164	0xbe1c7f34	-0.15282899
165	0x3d358299	0.044314
166	0xbead3094	-0.33826125
167	0xbe95773d	-0.29192534
168	0xbd279f8c	-0.04092364
169	0xbeee6fe5	-0.46569744
170	0xbe63ba62	-0.22239068
171	0xbe8d8b36	-0.27645272
172	0x3e613879	0.21994199
173	0x3f11040a	0.5664679
174	0x3d57ba7b	0.052668076
175	0xbe61ef56	-0.22063956
176	0x3e51a252	0.20472077
177	0x3dd45153	0.10367074
178	0xbe664863	-0.22488551
179	0xbecb11cd	-0.39662018
180	0xbdfb3828	-0.1226657
181	0xbc6e4e02	-0.014544966
182	0xbd8b9dfc	-0.068172425
183	0x3d781085	0.06056263
184	0xbf03eaa5	-0.51529914
185	0xbeac36eb	-0.3363565
186	0xbe98c7fb	-0.29840073
187	0xbe9e1f1d	-0.30883113
188	0xbe6f2387	-0.23353396
189	0xbc2d6c62	-0.0105849225
190	0xbde9e176	-0.114199564
191	0xbcaffa7d	-0.021481747
192	0xbd89b08f	-0.06723129
193	0x3ef17f2c	0.47167337
194	0x3e051c26	0.12999019
195	0xbe30e1e6	-0.17273673
196	0xbdc2a957	-0.09504955
197	0xbe130cc2	-0.14360335
198	0xbe3b41d4	-0.1828683
199	0xbdefeb4c	-0.11714801
200	0xbe99db21	-0.30049995
201	0xbe98526e	-0.2975039
202	0x3dfebabb	0.1243796
203	0xbdeca954	-0.11555734
204	0x3df6546d	0.12027822
205	0x3c364641	0.011125148
206	0xbe6a34f0	-0.22871757
207	0xbc38f2cd	-0.011288357
208	0xbe60a392	-0.21937397
209	0xbe6accfb	-0.22929756
210	0xb95c1fa0	-0.00020992616
211	0x3ddd50dd	0.10806439
212	0x3d3961f4	0.04525943
213	0x3bea1c1d	0.0071444646
214	0x3e2063b8	0.1566304
215	0xbe493bf5	-0.19651778
216	0xbe6ecf60	-0.23321295
217	0xbeaf2f27	-0.34215662
218	0x3dde4ac6	0.10854106
219	0xbb091f77	-0.0020923296
220	0x3e1d9fca	0.15392986
221	0xbe05b672	-0.13057879
222	0x3d0e4c9e	0.034741037
223	0x3d1f4ed5	0.03889354
224	0x3da9e0f0	0.082948565
225	0x3cba8402	0.022768024
226	0xbe6b44dc	-0.22975487
227	0xbe734284	-0.23755842
228	0xbd6fcddb	-0.05854593
229	0xbdd3df96	-0.1034538
230	0x3d67d397	0.056598272
231	0x3cc4b660	0.024012744
232	0xbdacd71c	-0.08439466
233	0x3e08bbc5	0.13352878
234	0xbe177bdb	-0.14793341
235	0x3d6e58e3	0.058190238
236	0xbe218ca4	-0.15776306
237	0x3e430faf	0.19048952
238	0x3e91bd58	0.2846477
239	0xbe48c548	-0.19606507
240	0x3e01ede7	0.12688409
241	0xbca730e2	-0.020409051
242	0xbe730792	-0.23733357
243	0x3c4e26e4	0.012582514
244	0xbe1e1265	-0.15436704
245	0x3da5a0d7	0.080873184
246	0x3ddf021b	0.108890735
247	0xbcc0b9be	-0.023526069
248	0xbd10bece	-0.035338216
249	0x3e006ebb	0.1254224
250	0xbd5321b0	-0.0515458
251	0x3e38ada4	0.18034989
252	0xbdfdc8da	-0.12391825
253	0x3e48b3e3	0.19599871
254	0xbe5e3f56	-0.21703848
255	0xbe2625cc	-0.16225356

embedder.emb_rnn.bias_ih_l0 f4 [60]
0	0x3f765514	0.9622357
1	0x3f7d6642	0.9898416
2	0x3f7f66ae	0.9976605
3	0x3f658834	0.89660954
4	0x3f6b3bed	0.91888314
5	0x3f5ffdca	0.87496626
6	0x3f826998	1.0188475
7	0x3f754165	0.9580291
8	0x3f0a8dc8	0.5412259
9	0x3f61f750	0.88267994
10	0x3f6f3018	0.9343276
11	0x3f82bfb7	1.0214757
12	0x3f889981	1.0671846
13	0x3f95e0d7	1.1709241
14	0x3f842bb7	1.0325841
15	0x3f7cb637	0.9871554
16	0x3f6f7db9	0.9355121
17	0x3f475606	0.77865636
18	0x3f79bbd4	0.9755223
19	0x3f88a02a	1.0673878
20	0x3f18b9d2	0.5965854
21	0x3f0ef643	0.55844516
22	0x3f05f80d	0.5233162
23	0x3f6fd244	0.93680215
24	0xbdf956e3	-0.121747755
25	0x3f1c8627	0.611422
26	0x3efa8277	0.48927662
27	0x3f663ad7	0.8993353
28	0x3f083910	0.5321207
29	0x3f07d076	0.5305246
30	0x3f646c77	0.89228004
31	0x3f048495	0.51764804
32	0x3eee23d1	0.465117
33	0xbe5bb51c	-0.21455806
34	0x3f77da7a	0.96817744
35	0x3f5edfe0	0.87060356
36	0x3f55dd76	0.8354105
37	0x3eaee761	0.34160903
38	0x3f7b81da	0.9824501
39	0x3f0d58c2	0.5521356
40	0x3f6ab7ba	0.91686594
41	0x3f91c482	1.1388094
42	0x3f8c27ff	1.0949706
43	0x3f88c541	1.0685197
44	0x3f3bd3bd	0.7336996
45	0x3f7d2937	0.98891014
46	0x3f6b9e3e	0.92038333
47	0x3f7d05e3	0.9883711
48	0x3f585037	0.844974
49	0x3f834cd9	1.0257827
50	0x3f70b4af	0.940257
51	0x3f72f769	0.9490877
52	0x3f707ac5	0.9393733
53	0x3ecaa9d3	0.3958269
54	0x3f647d22	0.8925344
55	0x3f777bb9	0.9667316
56	0x3f7f09b7	0.996242
57	0x3f6815f3	0.9065849
58	0x3f8c549a	1.0963318
59	0x3f628531	0.88484484

embedder.emb_rnn.bias_hh_l0 f4 [60]
0	0xbd1ab0df	-0.037766334
1	0xbc267239	-0.010159069
2	0xbb19a122	-0.002344199
3	0xbdd3bff1	-0.10339344
4	0xbda62221	-0.08111978
5	0xbe0007ea	-0.12503019
6	0x3c9a62c5	0.018845925
7	0xbd2be529	-0.04196659
8	0xbeeae4b1	-0.45877603
9	0xbdf04676	-0.11732189
10	0xbd867e8a	-0.06567104
11	0x3caffd4b	0.021483084
12	0x3d899cb0	0.06719339
13	0x3e2f05da	0.17092076
14	0x3d057fa8	0.032592446
15	0xbc528450	-0.012848929
16	0xbd841231	-0.06448782
17	0xbe62a88a	-0.22134605
18	0xbcc8852f	-0.02447757
19	0x3d8a03dd	0.06739018
20	0xbece8c67	-0.40341493
21	0xbee213d3	-0.4415575
22	0xbef41010	-0.47668505
23	0xbd816fda	-0.06320162
24	0xbf8f9562	-1.1217463
25	0xbec6f3fa	-0.38858014
26	0xbf02befb	-0.51072663
27	0xbdce29ab	-0.10066541
28	0xbeef8de5	-0.46787944
29	0xbef05f33	-0.4694763
30	0xbddc9dfb	-0.1077232
31	0xbef6f6ae	-0.48235077
32	0xbf08ee50	-0.53488636
33	0xbf9b764c	-1.2145476
34	0xbd0258e2	-0.031823047
35	0xbe047fd1	-0.12939383
36	0xbe2889bc	-0.16458791
37	0xbf288c3d	-0.65838987
38	0xbc8fc0a4	-0.017547913
39	0xbee54ebd	-0.44786635
40	0xbdb38822	-0.087662
41	0x3e11fd65	0.14256819
42	0x3db45bcb	0.088065706
43	0x3d9d2a3c	0.07674071
44	0x3db8016b	0.089846455
45	0xbc0375fa	-0.008023733
46	0xbd9df19e	-0.077121004
47	0xbc8222b2	-0.015885685
48	0xbcd30d2b	-0.025763115
49	0x3cb7cab7	0.02243553
50	0xbd394649	-0.045233045
51	0xbd7e8645	-0.06213977
52	0xbd4dc3e1	-0.050235633
53	0xbf2f08e6	-0.6837295
54	0xbdf4ae34	-0.11947289
55	0xbcecac75	-0.028890828
56	0x3cb4b575	0.022059182
57	0x3d3816e2	0.044943698
58	0x3ddeca1e	0.108783945
59	0xbdbca682	-0.09211446

embedder.emb_rnn.weight_ih_l1 f4 [60, 20]
0	0xbe6b2c81	-0.22966196
1	0x3e9afbab	0.30270132
2	0x3dc86c32	0.097862616
3	0xbe1d24de	-0.15346095
4	0xbf097d61	-0.5370694
5	0xbdfed6c2	-0.124433056
6	0xbe8b12d0	-0.2716279
7	0xbe2dba2f	-0.16965555
8	0x3e3e2384	0.18568236
9	0xbeb2d8dc	-0.34931076
10	0xbebe37d4	-0.37151968
11	0xbecfb7c5	-0.40569893
12	0x3ebb665c	0.36601532
13	0xbe5e8db9	-0.2173375
14	0xbe169d31	-0.14708401
15	0xbe516db5	-0.20452006
16	0x3e03b75c	0.12862915
17	0x3dc20b20	0.09474778
18	0x3c83d713	0.016093766
19	0xbe641c2e	-0.22276375
20	0x3e0a76c5	0.1352187
21	0x3c3e9780	0.0116328
22	0x3e2f0827	0.17092954
23	0x3c28946a	0.010289291
24	0x3d021736	0.031760417
25	0xbe8b28ce	-0.2717957
26	0xbd8d817b	-0.06909462
27	0xbe9bda38	-0.30439925
28	0x3d9c43d0	0.07630122
29	0x3e24e4b0	0.16102862
30	0xbe0f28e2	-0.1398044
31	0xbf140f33	-0.5783569
32	0xbdf25eb0	-0.118344665
33	0x3e5c5acf	0.21519016
34	0x3e0a7454	0.13520938
35	0x3d5747ae	0.052558593
36	0xbd809c69	-0.06279833
37	0x3e599d4b	0.21251409
38	0xbda3cf80	-0.07998562
39	0x3e40c1ef	0.1882398
40	0x3d84c7f6	0.06483452
41	0x3e451b00	0.19248581
42	0xbc89e6ea	-0.016833741
43	0x3e024cf6	0.12724671
44	0x3d075167	0.033036616
45	0xbdcc5a7d	-0.09978197
46	0x3e578e48	0.2105037
47	0xbe2895b9	-0.16463365
48	0xbdf76a9d	-0.12080882
49	0xbc9f3a9f	-0.019437132
50	0xbe57100e	-0.21002218
51	0x3de8f3b8	0.11374611
52	0x3c9c394a	0.019070286
53	0x3e1ba20b	0.15198533
54	0x3cc760b9	0.024338113
55	0xbe21367d	-0.15743442
56	0x3d5ee3fd	0.054416645
57	0x3e13f2a7	0.14448033
58	0xbe0b5117	-0.13605152
59	0xbf09969e	-0.5374545
60	0xbe77c82a	-0.2419745
61	0x3e808db4	0.2510811
62	0x3e931e0d	0.28733864
63	0x3d22782c	0.039665386
64	0x3dd7369b	0.10508462
65	0xbdd63702	-0.10459711
66	0xbc8991ac	-0.016793095
67	0xbdb1bdde	-0.086787924
68	0x3ac6b478	0.0015159985
69	0x3ced8125	0.028992245
70	0x3e25980a	0.1617128
71	0x3c5e9863	0.0135861365
72	0x3eb9e666	0.36308593
73	0x3c428422	0.011872323
74	0x3c7c94b3	0.015416312
75	0x3dad3992	0.08458246
76	0xbd9b6e91	-0.07589448
77	0xbce08c21	-0.027410569
78	0x3e8560b9	0.26050356
79	0x3e8b9227	0.27259943
80	0xbeef20c2	-0.4670468
81	0x3e174d1d	0.1477551
82	0x3e2ae977	0.16690622
83	0x3e7c03e6	0.24610862
84	0x3e063070	0.13104415
85	0x3e91d4ca	0.28482658
86	0xbb5f4786	-0.003406973
87	0x3e3f20a8	0.18664801
88	0x3dea61a8	0.11444408
89	0xbf0569f3	-0.5211479
90	0xbd6ec4bf	-0.0582931
91	0xbe8046b5	-0.25053945
92	0x3eafabad	0.34310666
93	0xbd52df1c	-0.051482305
94	0xbf603549	-0.87581307
95	0x3d273d45	0.040829916
96	0x3db181b1	0.08667315
97	0x3dfe998a	0.12431629
98	0x3cd39623	0.025828427
99	0x3f94f26b	1.163648
100	0x3daf92c3	0.085729145
101	0xbe7ee4fd	-0.2489204
102	0x3e551ac6	0.20810995
103	0xbd9b8eb9	-0.075955816
104	0x3c5c6d08	0.013453729
105	0x3e908c67	0.28232118
106	0x3df96620	0.12177682
107	0xbdba4728	-0.09095603
108	0x3dd71765	0.10502509
109	0x3d288b12	0.041148253
110	0x3e6e7500	0.2328682
111	0x3e6adfc3	0.22936921
112	0x3da4370d	0.080183126
113	0x3e9dccab	0.30820212
114	0x3e79b28b	0.24384515
115	0x3dbbe415	0.091743626
116	0x3e48bf65	0.19604261
117	0xbd61f76b	-0.055167597
118	0x3e6df4db	0.23237936
119	0xbf361434	-0.7112458
120	0x3b571b4f	0.0032822674
121	0xbd562cac	-0.052288696
122	0xbdb888ce	-0.090104684
123	0xbe20a9eb	-0.15689819
124	0xbefa2deb	-0.48863158
125	0xbe7b9645	-0.24569042
126	0xbd457524	-0.048207417
127	0xbedb6f42	-0.4285832
128	0xbe1895af	-0.1490085
129	0x3e37024b	0.17871968
130	0xbf029ceb	-0.5102069
131	0x3d98cf85	0.07461456
132	0x3e1b59de	0.15171
133	0xbf05e51e	-0.5230273
134	0x3ebd3c09	0.36959866
135	0xbe3f1358	-0.18659723
136	0x3e2dfefb	0.16991799
137	0xbf225650	-0.6341295
138	0xbeb06553	-0.34452304
139	0xbf83c517	-1.0294522
140	0x3ed8376c	0.42229784
141	0xbdb970f2	-0.09054746
142	0xbe4918af	-0.19638322
143	0xbd37624e	-0.044771485
144	0x3ec24797	0.37945244
145	0x3d10fc43	0.035396826
146	0xbe81854f	-0.2529702
147	0xbddcebf8	-0.10787195
148	0xbdf5ac06	-0.119957015
149	0x3dadcd09	0.08486373
150	0xbe523e26	-0.2053152
151	0x3e8c023c	0.27345455
152	0xbd93b2bc	-0.07211825
153	0xbd8d8ddc	-0.06911823
154	0x3ddccb25	0.10780934
155	0x3deadab4	0.114674956
156	0xbe15b3b9	-0.1461934
157	0x3d557200	0.052110672
158	0x3e8dcd5b	0.27695736
159	0xbdff6e2c	-0.124721855
160	0x3ea2eb18	0.31819987
161	0x3e263aa0	0.16233301
162	0xbeb3a4dd	-0.35086718
163	0xbdca378c	-0.09873876
164	0xbcd2a32b	-0.02571257
165	0xbf3cdbf7	-0.7377314
166	0x3e4fdedb	0.20299856
167	0x3d370a5d	0.044687618
168	0xbd248765	-0.040168185
169	0x3f0f4e62	0.5597898
170	0xbbef13ac	-0.0072960462
171	0xbe126505	-0.14296348
172	0x3ede7d69	0.43455055
173	0xbe3a3e4d	-0.18187828
174	0xbe3884b9	-0.1801938
175	0x3dab89b4	0.08375874
176	0x3def6cde	0.11690687
177	0xbf194bda	-0.59881365
178	0xbe057827	-0.13034116
179	0x3d276e4a	0.040876664
180	0x3e5af35a	0.21381894
181	0x3d7a5381	0.06111479
182	0x3e415714	0.18880874
183	0xbdc4d857	-0.09611576
184	0x3d2f7149	0.042832647
185	0x3e41eab5	0.1893719
186	0xbe2a5d85	-0.16637237
187	0x3e4b1f76	0.1983622
188	0x3e1d4041	0.15356542
189	0x3e62c370	0.22144866
190	0x3e83d20b	0.25746188
191	0xbe51b827	-0.20480405
192	0xbddc27f2	-0.107498065
193	0xbd96abf8	-0.07357019
194	0x3e789d51	0.24278761
195	0xbd8ff335	-0.0702881
196	0x3e4f05ef	0.20217107
197	0xbeb166bb	-0.3464869
198	0x3df09a20	0.11748147
199	0xbe629ef8	-0.22130954
200	0x3eea6c65	0.45785823
201	0xbe5618a4	-0.20907837
202	0xbe46ac59	-0.19401683
203	0xbd9ffb2b	-0.07811578
204	0xbe33fcdc	-0.17576927
205	0x3eaefc82	0.34177023
206	0x3db8ce38	0.09023708
207	0xbe2424ab	-0.16029613
208	0xbe4b9231	-0.19879986
209	0x3db71388	0.08939272
210	0x3d934e44	0.07192662
211	0xbe29fc9a	-0.16600266
212	0x3ded2a9c	0.11580393
213	0x3b6c1de0	0.003602855
214	0x3e3c9334	0.18415529
215	0x3e9f184f	0.31073233
216	0xbe49a6cc	-0.19692534
217	0xbe13ca86	-0.14432725
218	0xbe923f61	-0.2856398
219	0x3db301b3	0.087405585
220	0x3eba740d	0.36416665
221	0xbe44784b	-0.19186513
222	0xbced0201	-0.02893162
223	0x3e2806a8	0.16408789
224	0x3d932a4c	0.07185802
225	0x3df39ca5	0.11895112
226	0x3d40842b	0.047001045
227	0x3d04a484	0.032383457
228	0x3cc207a8	0.023685291
229	0xbb802528	-0.0039106794
230	0xbc06a9e6	-0.008219218
231	0xbcd61b0e	-0.026135948
232	0xbe8c7535	-0.27433172
233	0x3e2e4294	0.17017585
234	0xbf0bae40	-0.5456276
235	0xbe2c6d50	-0.16838574
236	0xbe9230e7	-0.28552935
237	0x3dc2d58d	0.09513388
238	0xbd9a3071	-0.07528771
239	0xbdf5d48d	-0.120034315
240	0x3b6b18a4	0.0035872841
241	0x3dadc842	0.08485462
242	0x3e5622a9	0.2091166
243	0x3e9d84b9	0.30765322
244	0x3e3eb6e0	0.18624449
245	0xbe9cce58	-0.30626178
246	0x3e892c57	0.2679164
247	0x3ea08513	0.31351528
248	0x3d3072c6	0.043078206
249	0x3eb80c26	0.3594677
250	0xbe066d11	-0.13127543
251	0xbea7b1f9	-0.3275297
252	0xbc7e8933	-0.0155356405
253	0x3e8e3398	0.27773738
254	0x3e5c5a96	0.21518931
255	0x3e0da50a	0.13832489

embedder.emb_rnn.weight_hh_l1 f4 [60, 20]
0	0x3e958448	0.29202485
1	0xbccc36db	-0.0249285
2	0xbe70922a	-0.23493257
3	0x3d6f1022	0.058364995
4	0xbe00b49b	-0.12568896
5	0xbdd3abe9	-0.10335524
6	0xbe972a27	-0.29524347
7	0x3e27295e	0.16324374
8	0xbe9aec0e	-0.3025822
9	0x3eb4aee4	0.3528968
10	0x3e6b9f0d	0.23009892
11	0xbe518823	-0.20462088
12	0x3db06f1f	0.08614945
13	0xbeae9d0e	-0.34104198
14	0x3d2f79b8	0.04284069
15	0x3e529504	0.20564657
16	0xbd8b7855	-0.06810061
17	0xbe6d03cf	-0.23145984
18	0x3e80ae94	0.25133193
19	0xbe81b73a	-0.25335103
20	0xbe025c04	-0.12730414
21	0x3e43eb58	0.19132745
22	0xbe88c33c	-0.26711452
23	0x3dd57c09	0.104240485
24	0xbe77dbbe	-0.24204919
25	0xbe0bbfc6	-0.13647375
26	0xbe16befd	-0.14721294
27	0xb99e379f	-0.0003017755
28	0x3e858f3b	0.2608584
29	0xbe6dd1e6	-0.23224601
30	0x3df8c5c7	0.12147098
31	0xbe035ad7	-0.12827621
32	0xbeef8032	-0.46777493
33	0x3e298c48	0.1655742
34	0xbeb4bbea	-0.35299617
35	0x3d8f7f23	0.07006671
36	0xbe69d087	-0.22833453
37	0xbe1ff7d0	-0.15621877
38	0xbdf392a6	-0.11893205
39	0x3e91c482	0.28470236
40	0xbe8ab9d6	-0.27094907
41	0x3ded92df	0.11600279
42	0x3d1bfd79	0.038083527
43	0xbe5eddf0	-0.2176435
44	0x3da6950f	0.081338994
45	0xbe070afb	-0.13187782
46	0xbd02d798	-0.031943887
47	0xbdb21225	-0.08694867
48	0x3e903df2	0.2817226
49	0xbc26f3e1	-0.010189981
50	0xbdeb8617	-0.11500185
51	0xbdc8975e	-0.09794496
52	0x3e4486aa	0.19191995
53	0x3d1e585d	0.03865849
54	0xbe9be488	-0.30447793
55	0x3e5f6bdf	0.21818493
56	0xbea7896a	-0.32722026
57	0x3d5dba6a	0.054132856
58	0x3e1ed60e	0.15511343
59	0x3e93444d	0.28763047
60	0x3e3d3e3a	0.18480769
61	0x3e1c9f87	0.1529523
62	0xbdad68f6	-0.08467285
63	0xbe09f369	-0.1347176
64	0x3e5d4758	0.21609247
65	0x3d16cda4	0.036817208
66	0x3deba815	0.115066685
67	0x3e65af70	0.22430205
68	0xbd6113df	-0.05495059
69	0xbea273a1	-0.31728843
70	0xbd423125	-0.04741015
71	0xbe3164fc	-0.17323679
72	0x3e434f1c	0.19073147
73	0x3e9466f7	0.28984806
74	0xbdecd0fd	-0.11563299
75	0x3d999f25	0.075010575
76	0x3d39fca2	0.045406945
77	0x3cec5a23	0.028851574
78	0xbe674963	-0.22586589
79	0x3e21ddef	0.15807317
80	0x3cb16ff2	0.021659825
81	0xbe9907e1	-0.29888824
82	0x3d83ba1a	0.064319804
83	0x3e5dfb6a	0.21677938
84	0x3d028f86	0.031875156
85	0x3d261ca3	0.040554654
86	0x3d8ebaaa	0.06969197
87	0x3e5c927b	0.21540253
88	0x3eec52fe	0.46157068
89	0xbe6b8870	-0.23001266
90	0x3eae5520	0.3404932
91	0x3e721a00	0.2364273
92	0xbc933156	-0.017967861
93	0x3f819866	1.0124633
94	0x3e277428	0.16352904
95	0x3dbdab7a	0.09261222
96	0x3e8e83d8	0.27834964
97	0x3f099409	0.5374151
98	0xbe69b8dd	-0.22824426
99	0x3ea2213d	0.31665984
100	0xbb8da2a8	-0.0043223687
101	0xbd8ee5fb	-0.06977459
102	0xbe23ace2	-0.15983918
103	0x3df288fe	0.118425354
104	0x3ddf7bd4	0.1091229
105	0xbd08be4a	-0.0333846
106	0x3de4795d	0.11155961
107	0x3e908b66	0.28231353
108	0xbd57ed7d	-0.05271672
109	0x3ef0ab82	0.4700585
110	0x3dff3863	0.12461927
111	0xbd52a1cd	-0.051423836
112	0x3dd1ba51	0.10240615
113	0xbe130724	-0.14358193
114	0x3dda1aaa	0.10649617
115	0xbc8a32a0	-0.016869843
116	0xbead1516	-0.3380515
117	0xbe81d105	-0.25354782
118	0xbe864a54	-0.26228583
119	0xbde815d4	-0.113322884
120	0xbf126d13	-0.57197684
121	0xbe9cb31f	-0.3060541
122	0xbe2c2884	-0.1681233
123	0xbde1fd3a	-0.11034627
124	0xbe5d7e02	-0.216301
125	0x3ee227a1	0.4417086
126	0x3dea95e2	0.11454369
127	0x3da6e624	0.081493646
128	0x3f19fb77	0.6014933
129	0x3e7496c6	0.2388564
130	0xbedcbe07	-0.4311373
131	0xbe7c7bf2	-0.24656656
132	0x3e58e293	0.21180181
133	0xbec20868	-0.37897038
134	0x3e1abf09	0.15111937
135	0x3f0c2082	0.54737103
136	0xbf043372	-0.51641
137	0xbd193442	-0.037403353
138	0x3e18fc07	0.14939891
139	0x3e734081	0.23755075
140	0xbe5c33f2	-0.2150419
141	0x3e8edfcf	0.27905127
142	0xbcf526ca	-0.029925723
143	0xbd374efb	-0.044753056
144	0xbdc35abb	-0.0953879
145	0x3e4f7f5a	0.20263425
146	0xbdef6627	-0.11689406
147	0xbde8485e	-0.11341928
148	0xbee131c3	-0.43983278
149	0x3e3194f3	0.17341976
150	0xbc243029	-0.010021248
151	0x3d82db92	0.06389536
152	0xbc44d87b	-0.012014504
153	0x3e635bc9	0.22202982
154	0xbccc15c7	-0.024912728
155	0x3d0b19ac	0.03396003
156	0x3e94b847	0.29046842
157	0xbe731790	-0.23739457
158	0x3daa58f5	0.083177485
159	0xbed4d6f4	-0.41570246
160	0x3bfe83d1	0.0077671786
161	0xbd961362	-0.07327916
162	0x3d839f14	0.06426826
163	0xbe2148c5	-0.15750416
164	0x3e09edb5	0.13469584
165	0x3d8a7bbd	0.067618825
166	0xbe425c6f	-0.18980573
167	0xbe39841b	-0.181168
168	0x3ea8ea81	0.32991412
169	0xbeb44f07	-0.35216543
170	0x3e551bdf	0.20811413
171	0xbdfd8fdc	-0.123809546
172	0xbe81f538	-0.253824
173	0x3d51fdb7	0.051267352
174	0xbe10a2df	-0.1412463
175	0xbdb81fe6	-0.08990459
176	0x3bebc8da	0.007195574
177	0x3e41f158	0.18939722
178	0x3e713231	0.23554303
179	0x3e419733	0.18905334
180	0xbc54311a	-0.01295116
181	0xbd44a34a	-0.048007287
182	0xbb953363	-0.004553245
183	0x3c354948	0.011064835
184	0xbe313455	-0.1730512
185	0x3e5a9dc5	0.21349247
186	0x3dc618a2	0.09672667
187	0x3d8cf166	0.068819806
188	0xbe02ae52	-0.1276181
189	0xbe2d0af9	-0.16898717
190	0xbd744324	-0.059634343
191	0xbe07e75e	-0.13271853
192	0x3e11e355	0.14246877
193	0xbe5f560a	-0.21810165
194	0x3e79f478	0.24409664
195	0xbd002b46	-0.03129127
196	0xbe8131cc	-0.25233305
197	0xbe8beaaa	-0.27327472
198	0x3e451260	0.19245291
199	0xbed2bf1f	-0.4116144
200	0x3e4598ab	0.1929652
201	0x3ddfff4d	0.10937367
202	0x3db7bad1	0.08971179
203	0xbe853490	-0.26016665
204	0xbdeafbab	-0.11473783
205	0x3d299987	0.04140618
206	0xbe821ba6	-0.2541172
207	0xbde23a9e	-0.110463366
208	0x3d68a827	0.056800988
209	0xbdd61da0	-0.10454869
210	0x3d1b6a40	0.037943125
211	0x3e9455c1	0.28971675
212	0x3c0863e8	0.008324601
213	0x3e4d0ffb	0.20025627
214	0x3db3a378	0.087714136
215	0x3eb2adf5	0.34898344
216	0xbd93443c	-0.07190749
217	0xbe0d8b30	-0.13822627
218	0xbd90a6af	-0.07063042
219	0x3e8fa01a	0.28051835
220	0x3e980bf5	0.29696622
221	0xbdde70f1	-0.108613856
222	0xbe275cda	-0.16344014
223	0xbe381ca1	-0.17979671
224	0x3d244b9c	0.04011117
225	0x3e269bc8	0.16270363
226	0xbe715172	-0.23566225
227	0x3d77ce17	0.060499277
228	0xbeb98be6	-0.36239547
229	0x3e9042ca	0.28175956
230	0x3b0241e5	0.0019875702
231	0xbe400745	-0.18752773
232	0x3e03c74a	0.12868991
233	0xbdd7fcdd	-0.10546277
234	0x3e13f8f2	0.14450434
235	0x3e5ae55e	0.21376559
236	0xbcf0c5c9	-0.029391186
237	0x3de922c6	0.11383586
238	0x3dce6ea7	0.10079699
239	0x3e256430	0.161515
240	0x3da2d004	0.07949832
241	0xbd7db698	-0.061941713
242	0x3ddbc429	0.10730774
243	0xbd96b949	-0.07359559
244	0xbe1e1c98	-0.15440595
245	0x3be4afd9	0.0069789705
246	0x3e30f8dc	0.17282432
247	0x3dbb9099	0.09158439
248	0xbda2380c	-0.07920846
249	0x3da093e9	0.078407116
250	0xbdaabd4d	-0.083368875
251	0xbe5ab4f6	-0.21358094
252	0x3de96948	0.11397034
253	0xbccd963d	-0.025096053
254	0xbc43dadc	-0.011954036
255	0xbdb48fed	-0.08816514

embedder.emb_rnn.bias_ih_l1 f4 [60]
0	0x3f8120e8	1.0088167
1	0x3f707d09	0.9394079
2	0x3f74d811	0.9564219
3	0x3f897faf	1.0742091
4	0x3f8f1d1c	1.1180758
5	0x3f891a2d	1.0711113
6	0x3f6d4aad	0.9269207
7	0x3f81008b	1.0078291
8	0x3f766ca7	0.9625954
9	0x3f7e798e	0.9940423
10	0x3f825db5	1.0184847
11	0x3f7a0231	0.97659594
12	0x3f8647c8	1.0490656
13	0x3f81c4fc	1.013824
14	0x3f5d916d	0.8655003
15	0x3f8e9a3a	1.1140816
16	0x3f912533	1.1339477
17	0x3f820991	1.015917
18	0x3f638572	0.88875496
19	0x3f7d0dcc	0.9884918
20	0x3f576f01	0.84153754
21	0x3f0f4189	0.55959374
22	0x3f223b74	0.6337197
23	0x3edef01b	0.4354256
24	0x3f053041	0.52026755
25	0x3f65a0d0	0.89698505
26	0x3e957f46	0.29198664
27	0x3f3ed4f4	0.7454369
28	0x3f4b30cf	0.7937135
29	0x3d790768	0.06079808
30	0x3f0119ef	0.50430197
31	0x3f3f56d2	0.7474185
32	0x3f58858e	0.8457879
33	0x3f53c52a	0.82722723
34	0x3eef9f71	0.46801332
35	0x3f72e1a6	0.9487556
36	0x3f789df1	0.97116
37	0x3eed2a8f	0.46321532
38	0x3f0942a1	0.5361729
39	0x3f280536	0.6563295
40	0x3f8a77c5	1.0817801
41	0x3f77d54f	0.9680986
42	0x3f81b202	1.0132449
43	0x3f73ce22	0.9523641
44	0x3f8d3287	1.1031045
45	0x3f63f18a	0.89040434
46	0x3f79f9ce	0.97646797
47	0x3f817941	1.0115129
48	0x3f77aea9	0.96750885
49	0x3f6c959f	0.92415804
50	0x3f7ed696	0.9954618
51	0x3f78acdf	0.9713878
52	0x3f61b3f0	0.8816519
53	0x3f6ca28c	0.92435527
54	0x3f7d2704	0.9888766
55	0x3f6f9c8c	0.93598247
56	0x3f91b6fb	1.1383966
57	0x3f6234f4	0.8836205
58	0x3f692c1b	0.91082925
59	0x3f75618f	0.9585199

embedder.emb_rnn.bias_hh_l1 f4 [60]
0	0x3c108607	0.008821017
1	0xbd783150	-0.060593903
2	0xbd3280b7	-0.043579783
3	0x3d97fec9	0.07421643
4	0x3df1cff5	0.11807243
5	0x3d919f5a	0.07110472
6	0xbd95aa14	-0.073078305
7	0x3c003157	0.007824264
8	0xbd1935d8	-0.037404865
9	0xbbc33d83	-0.0059582605
10	0x3c976e79	0.018485295
11	0xbcbfba96	-0.0234044
12	0x3d48f855	0.049064953
13	0x3c6275ee	0.013822062
14	0xbe09baca	-0.1345016
15	0x3de9a55e	0.114084944
16	0x3e0928c0	0.13394451
17	0x3c826646	0.015917908
18	0xbde3d438	-0.11124462
19	0xbc3c9a1c	-0.011511352
20	0xbe224431	-0.15846325
21	0xbee17c0c	-0.44039953
22	0xbebb88cf	-0.36627814
23	0xbf1087ab	-0.5645701
24	0xbef59f81	-0.47973254
25	0xbdd2f9af	-0.103015296
26	0xbf354092	-0.7080165
27	0xbe825628	-0.25456357
28	0xbe533c7c	-0.20628542
29	0xbf706f52	-0.9391986
30	0xbefdccd8	-0.49570346
31	0xbe8151d3	-0.2525774
32	0xbe1debaf	-0.15421937
33	0xbe30eb2d	-0.17277212
34	0xbf08301d	-0.53198415
35	0xbd51e6e2	-0.051245578
36	0xbcec444e	-0.028841164
37	0xbf096ae4	-0.5367873
38	0xbeed7b30	-0.46383047
39	0xbeaff62a	-0.34367496
40	0x3dbb3259	0.091404624
41	0xbc9f1fb0	-0.01942429
42	0xbb9ddcf2	-0.0048175985
43	0xbd38ef2a	-0.04514996
44	0x3e043f41	0.12914754
45	0xbdcf7e2f	-0.101314895
46	0x3e277a0d	0.16355152
47	0x3c65b5f5	0.014020433
48	0xbd83a63a	-0.064281896
49	0xbd9f8d87	-0.07790666
50	0x3da0cf35	0.078520216
51	0xbcc5973a	-0.024119962
52	0xbde3acf6	-0.11116974
53	0xbda5f18b	-0.08102711
54	0xbdfe3d8f	-0.12414085
55	0xbd6d2063	-0.057892215
56	0x3e34cb0f	0.17655586
57	0xbdc23985	-0.09483627
58	0xbe52c391	-0.20582415
59	0xbd028728	-0.031867176

embedder.emb_rnn.weight_ih_l2 f4 [60, 20]
0	0x3e944b0c	0.28963506
1	0xbdaa5bcd	-0.08318291
2	0xbd7c9e87	-0.06167462
3	0x3ee9510b	0.45569643
4	0x3b48a690	0.0030616857
5	0xbd695c7f	-0.056972977
6	0x3b949b08	0.0045350827
7	0x3dff3cbe	0.124627575
8	0x3e5f7f1a	0.21825829
9	0xbe89f71b	-0.2694634
10	0x3e0d6ff1	0.13812234
11	0x3e31477f	0.1731243
12	0x3cfabfc6	0.030609023
13	0xbe3b97e1	-0.18319656
14	0xbdc7800c	-0.0974122
15	0x3e8c881b	0.2744759
16	0x3d1a0a6d	0.0376076
17	0xbd276914	-0.040871695
18	0xbe4d3159	-0.20038356
19	0x3eeb121f	0.45912263
20	0x3d9adb4d	0.075613596
21	0xbe358199	-0.17725219
22	0x3e37f0a9	0.17962898
23	0xbe283ee4	-0.16430241
24	0x3ddc51f0	0.10757816
25	0x3e3f17a5	0.18661363
26	0x3d71a8bf	0.05899882
27	0xbd908ffe	-0.07058714
28	0xbe820fd4	-0.254027
29	0xbe2a8306	-0.16651544
30	0x3d8b118d	0.06790457
31	0xbda926b3	-0.082593344
32	0x3e7eb4fa	0.24873725
33	0x3dc9da86	0.09856133
34	0x3e0294c3	0.1275206
35	0x3ea12c34	0.31479037
36	0xbe3b968c	-0.18319148
37	0xbe42f6d8	-0.19039476
38	0xbdd49698	-0.10380286
39	0xbb5e199e	-0.003388978
40	0xbda859c7	-0.08220249
41	0x3d4fd0fc	0.050736412
42	0x3e10b75c	0.14132446
43	0x3d962427	0.07331114
44	0xbc8e839d	-0.017396742
45	0x3da437cb	0.08018454
46	0x3e246f0a	0.16057983
47	0xbe56a853	-0.20962648
48	0x3e5414ac	0.2071101
49	0xbe7a3380	-0.24433708
50	0x3e588720	0.21145296
51	0x3e6c842b	0.23097293
52	0x3d4ecd31	0.050488655
53	0x4019af30	2.4013176
54	0x3c392aa0	0.0113016665
55	0xbdf1ef3c	-0.118132085
56	0x3f1930c7	0.59840053
57	0x3e1e7c42	0.15477088
58	0x3cab2d6e	0.020895686
59	0x3b6fb31f	0.003657527
60	0xbca00eb7	-0.019538267
61	0xbd68e3a3	-0.056857716
62	0xbd0157df	-0.03157794
63	0xbbcfe502	-0.0063444385
64	0xbed07659	-0.40715292
65	0x3e4a2a4b	0.19742696
66	0xbe47e2db	-0.19520132
67	0xbcf5164a	-0.029917855
68	0xbf0a24db	-0.53962487
69	0xbd963584	-0.07334426
70	0x3ca3abc0	0.019979358
71	0xbe0ae386	-0.13563356
72	0xbd9c2321	-0.07623888
73	0x3d59448c	0.053043887
74	0x3dfceb80	0.123496056
75	0xbb499702	-0.0030760174
76	0xbd420bf5	-0.047374684
77	0x3e327d19	0.17430533
78	0x3ebe100a	0.37121612
79	0x3dec5596	0.11539762
80	0x3d7a723c	0.0611441
81	0x3de8c0df	0.11364912
82	0x3e492e87	0.19646655
83	0xbd6472ac	-0.055773422
84	0x3de0b37b	0.10971733
85	0x3eb7af9b	0.35876164
86	0x3d544a29	0.051828537
87	0x3ad8fe4a	0.0016555276
88	0x3ee2b8bb	0.44281563
89	0x3dbfd50c	0.09366807
90	0xbd4e0f3a	-0.05030749
91	0x3e53829c	0.20655292
92	0x3e0579d3	0.13034754
93	0x3edc6849	0.43048313
94	0x3e9512fc	0.29116046
95	0xbaed358f	-0.0018097627
96	0x3de146ed	0.10999856
97	0x3df26352	0.1183535
98	0x3e6df015	0.23236115
99	0xbdced444	-0.1009908
100	0xbe146ae3	-0.14493899
101	0x3e979e48	0.29612947
102	0x3de65ac7	0.11247783
103	0xbe64cfca	-0.2234489
104	0xbca61c4b	-0.020277163
105	0xbd91afd9	-0.071136184
106	0x3d7319d1	0.059350792
107	0x3e0fefc3	0.14056306
108	0xbeb024a1	-0.34402946
109	0xbbee813d	-0.00727859
110	0x3c947ffe	0.018127438
111	0x3da6d7f3	0.08146658
112	0xbd8b4c5c	-0.06801674
113	0xbf49f1aa	-0.78884375
114	0x3e4ffe18	0.20311773
115	0x3ca19f65	0.019729326
116	0xbea892a3	-0.32924375
117	0xbdc7fc05	-0.09764866
118	0x3e97b51f	0.29630372
119	0xbe71d49a	-0.23616257
120	0x3ec58e91	0.38585332
121	0x3ddeef12	0.10885443
122	0xbe60bd54	-0.21947223
123	0x3ee3ecb4	0.44516528
124	0x3e33016c	0.17481011
125	0xbe8e6af2	-0.27815968
126	0x3d9e7858	0.077377975
127	0xbe2eee94	-0.17083198
128	0xbe6d9e93	-0.23205023
129	0xbe7c2a4a	-0.24625507
130	0xbd68e999	-0.0568634
131	0xbe34ed31	-0.17668606
132	0xbe99d065	-0.30041805
133	0xbd8500f2	-0.06494321
134	0x3d47c7b7	0.048774447
135	0x3dccc712	0.09998907
136	0xbe39d514	-0.18147689
137	0xbdb69c9f	-0.08916592
138	0x3d82eb7e	0.06392573
139	0x3ee4fb77	0.44723102
140	0xbd957f07	-0.07299619
141	0xbe422df0	-0.18962836
142	0x3e0c4382	0.13697627
143	0x3f6c4416	0.9229139
144	0xbe5d6eb1	-0.21624257
145	0x3e628db2	0.22124365
146	0x3e5a5a38	0.21323478
147	0x3d37acb3	0.044842433
148	0xbf80ef14	-1.0072961
149	0xbc178323	-0.009247574
150	0x3e17b11d	0.14813657
151	0xbe844573	-0.25834236
152	0xbdc0d526	-0.09415655
153	0xbed26c0a	-0.41098052
154	0xbcdde425	-0.027086327
155	0x3e8be582	0.27323538
156	0xbd9fa727	-0.07795554
157	0x3e0905a9	0.13381065
158	0x3e311ab2	0.1729534
159	0x3f2ad04b	0.6672408
160	0xbedc6646	-0.43046778
161	0x3d8dd840	0.06926012
162	0x3e5e5977	0.21713816
163	0x3ef9f439	0.4881914
164	0xbe9f2230	-0.3108077
165	0x3e600179	0.21875562
166	0x3e09f5f4	0.1347273
167	0x3de60f7d	0.11233423
168	0xbf4dc662	-0.80380833
169	0x3eb056a9	0.34441116
170	0xbda2714f	-0.07931768
171	0x3e15b7e7	0.14620934
172	0xbdfbf662	-0.12302853
173	0x3e31ee4b	0.17376058
174	0xbdada5b6	-0.084788725
175	0x3e371637	0.17879568
176	0xbf3fd812	-0.7493907
177	0x3d84bc15	0.06481186
178	0x3e40e5f1	0.18837716
179	0x3e3f741e	0.18696639
180	0x3d70175e	0.058616035
181	0x3c376b28	0.011194982
182	0x3df2770c	0.11839113
183	0xb992f1c7	-0.00028027428
184	0xbb880cd3	-0.0041519194
185	0x3e74ab37	0.23893438
186	0xbea221e2	-0.31666476
187	0x3e038624	0.1284414
188	0x3e96b890	0.29437685
189	0x3f0c9d87	0.5492787
190	0xbe1aee41	-0.15129949
191	0xbe787710	-0.24264169
192	0xbd8ccf72	-0.068755046
193	0x38f5420a	0.00011694811
194	0xbd49d6a5	-0.049276967
195	0x3e3bf7eb	0.18356292
196	0xbe80bca2	-0.25143915
197	0xbec456dd	-0.3834752
198	0xbdc795d9	-0.09745378
199	0xbea0b4ff	-0.3138809
200	0xbecff62f	-0.4061751
201	0xbe99af69	-0.3001664
202	0x3ceebff7	0.02914427
203	0x3effc645	0.49955955
204	0xbdf6b06b	-0.12045368
205	0xbd253ee0	-0.040343165
206	0xbeee4f1e	-0.46544737
207	0xbd49c02b	-0.04925553
208	0xbf53be47	-0.82712215
209	0xbea57114	-0.32312834
210	0x3e3faa48	0.18717301
211	0xbd3b8681	-0.04578257
212	0x3e90bdce	0.2826981
213	0xbf05d382	-0.5227586
214	0xbe7c1025	-0.24615534
215	0x3cf99de8	0.030470803
216	0xbe1b6c67	-0.15178071
217	0x3db6e91d	0.089311816
218	0xbd847c97	-0.06469076
219	0x3eabdb9c	0.33565986
220	0x3dd1ddce	0.10247384
221	0x3ea38d66	0.31943816
222	0x3d04f17f	0.03245687
223	0x3ea219d5	0.31660333
224	0x3b42dc44	0.002973334
225	0xbf02c465	-0.51080924
226	0x3f24c9af	0.64370245
227	0x3d7fc89f	0.062447187
228	0x3e87b42e	0.26504654
229	0xbeb7eb4a	-0.359217
230	0x3e805ca3	0.25070676
231	0x3eec49ce	0.46150059
232	0xbf17d21a	-0.59304965
233	0xbe5b0f3d	-0.21392532
234	0xbe00b594	-0.12569267
235	0x3e37174b	0.1787998
236	0xbf23c4d6	-0.6397222
237	0x3f0cca2d	0.54995996
238	0xbe425608	-0.18978131
239	0x3ee03925	0.43793598
240	0xbe7a97ff	-0.24472044
241	0x3e07ee7e	0.13274571
242	0xbd6b3446	-0.0574229
243	0xbe84f32d	-0.25966778
244	0x3e249dd2	0.16075829
245	0x3e874f3a	0.26427633
246	0xbe31940b	-0.1734163
247	0x3db5cb38	0.088766515
248	0xbee9e337	-0.45681164
249	0xbe9ad237	-0.30238506
250	0x3dae45c5	0.08509401
251	0xbe285d2b	-0.16441791
252	0xbdb67b6b	-0.08910259
253	0xbe837275	-0.2567326
254	0xbe2872d5	-0.16450055
255	0x3e6f02ff	0.23340987

embedder.emb_rnn.weight_hh_l2 f4 [60, 20]
0	0x3d385089	0.04499868
1	0xbdf9dfe7	-0.12200909
2	0xbe138099	-0.14404525
3	0x3e4f18d1	0.2022431
4	0x3e8bf6d0	0.2733674
5	0xbd2a1198	-0.041520685
6	0x3e75acba	0.23991671
7	0xbe2c588b	-0.16830651
8	0xbe2ec65a	-0.17067853
9	0x3eb2f5ee	0.34953254
10	0xbddfa665	-0.10920409
11	0x3e0f1fcf	0.13976978
12	0xbd9bf306	-0.076147124
13	0xbe666e3f	-0.22502993
14	0x3e05c5de	0.13063762
15	0x3e4a5f00	0.19762802
16	0xbe0b5bb3	-0.13609199
17	0xbd1b2a9d	-0.037882436
18	0x3dff62d9	0.124700256
19	0x3eaa3307	0.33242056
20	0x3e1eeed7	0.15520798
21	0x3d514cab	0.051098507
22	0xbdd46c91	-0.1037227
23	0xbd97e66a	-0.07416995
24	0x3e0bd0a4	0.13653809
25	0x3d77ee2d	0.060529877
26	0xbc1c608f	-0.009544506
27	0x3e27c3a0	0.16383219
28	0xbe282ac8	-0.1642257
29	0x3df9e41a	0.1220171
30	0x3d1ce8ca	0.038307942
31	0x3e645014	0.22296172
32	0x3e51c630	0.20485759
33	0x3e240d5f	0.16020726
34	0xbdc131bf	-0.094333164
35	0x3d8faf8e	0.07015906
36	0xbdb786f1	-0.08961285
37	0x3df9d2a9	0.12198383
38	0x3da76bf0	0.08174884
39	0x3e44c839	0.19217004
40	0x3e430114	0.1904338
41	0x3e1efba6	0.15525684
42	0xbe2e02ea	-0.16993299
43	0x3e3729b3	0.17887
44	0xbe805c6a	-0.25070506
45	0x3f515915	0.81776553
46	0xbcf71fb8	-0.030166492
47	0x3e186a1a	0.14884225
48	0x3db331ec	0.08749756
49	0xbea3bc65	-0.3197967
50	0x3f0a171b	0.53941506
51	0x3ec15844	0.37762654
52	0x3ed46f99	0.41491392
53	0xbd972d94	-0.0738174
54	0x3fb4532b	1.4087881
55	0xbe534293	-0.20630865
56	0xbcf3047f	-0.02966523
57	0x3e914ca5	0.28378788
58	0xbd4a235d	-0.04935013
59	0xbe0d0016	-0.13769564
60	0x3e5563a7	0.20838796
61	0x3d0f71b1	0.035020534
62	0x3cd894ff	0.026438234
63	0xbea93712	-0.33049828
64	0x3a67d67e	0.00088439125
65	0xbddb787f	-0.10716342
66	0x3e1b1f67	0.15148698
67	0xbda7d988	-0.08195788
68	0x3e23893d	0.15970321
69	0xbe449288	-0.19196522
70	0xbe6d133a	-0.23151866
71	0x3e6a5cf9	0.22887029
72	0xbeae5780	-0.34051132
73	0x3d80e249	0.062931605
74	0xbe6e4b53	-0.23270921
75	0xbe3da8b3	-0.18521385
76	0xbe78dd7e	-0.24303243
77	0x3df6c265	0.120487966
78	0xbeb5206b	-0.35376295
79	0xbd811054	-0.063019425
80	0x3e173de5	0.14769705
81	0x3e2a6cb5	0.16643031
82	0x3e6e691e	0.23282287
83	0x3bf0cad1	0.0073483963
84	0x3d3660c9	0.044525895
85	0xbf048981	-0.51772314
86	0x3e7aae26	0.24480495
87	0x3e1d8de1	0.15386154
88	0x3e006690	0.12539124
89	0x3cc33af0	0.023831815
90	0xbdc41083	-0.09573462
91	0xbdfca06f	-0.12335288
92	0x3e582c04	0.2111054
93	0x3e7d28c3	0.2472258
94	0xbe6adaea	-0.22935072
95	0xbe255011	-0.16143824
96	0x3c6fb49f	0.014630466
97	0x3de97dee	0.11400972
98	0xbe03ac96	-0.12858805
99	0xbe0dd960	-0.13852453
100	0x3eb44c42	0.3521443
101	0xbe29c9a0	-0.1658082
102	0x3e53379d	0.20626684
103	0xbe8e004a	-0.27734596
104	0xbea3af23	-0.31969556
105	0xbda2f161	-0.079561956
106	0x3e1d55f8	0.15364826
107	0x3d9964e4	0.074899465
108	0x3d71ad6d	0.059003282
109	0x3e801d86	0.25022525
110	0x3ee74421	0.45169166
111	0xbe3a8706	-0.1821557
112	0x3de88869	0.11354143
113	0x3e208ec5	0.15679462
114	0xbeab7131	-0.33484796
115	0x3e3b2a62	0.18277887
116	0xbdee38e5	-0.116319455
117	0x3d44e978	0.048074216
118	0xbe07a067	-0.13244782
119	0x3df161fa	0.11786266
120	0x3e741798	0.23837125
121	0x3e0ea0ad	0.1392848
122	0xbe936ff0	-0.2879634
123	0xbdd49bd0	-0.103812814
124	0x3c6ba6b4	0.014383007
125	0xbd867323	-0.06564929
126	0xbe3deee4	-0.18548161
127	0x3eac624a	0.3366874
128	0x3e08364e	0.13301966
129	0x3c0efe14	0.008727569
130	0x3e3a00ef	0.18164419
131	0xbdca588b	-0.098801695
132	0x3e82b0dd	0.2552556
133	0xbe0a1843	-0.13485818
134	0x3e2d28bc	0.1691007
135	0xbcb5c081	-0.02218652
136	0xbe065c65	-0.13121183
137	0xbec574d4	-0.38565695
138	0xbe526cb9	-0.20549287
139	0x3ec82d1e	0.39096922
140	0x3e92744e	0.28604358
141	0x3e8199c3	0.25312623
142	0x3e88ace4	0.26694405
143	0xbe13ba57	-0.14426552
144	0x3e43cb05	0.19120415
145	0xbe89f848	-0.26947236
146	0xbe73d027	-0.23809873
147	0x3e17ffe8	0.14843714
148	0x3d0bcb04	0.034129158
149	0x3e9605a1	0.2930117
150	0xbe181523	-0.14851813
151	0x3d6abaef	0.05730718
152	0xbebc0232	-0.36720425
153	0x3e4747de	0.19461009
154	0xbef1a05d	-0.4719266
155	0xbdd4d09c	-0.103913516
156	0x3ea5dac5	0.3239347
157	0x3eb6dde1	0.35716155
158	0xbe260f37	-0.16216742
159	0xbdedfceb	-0.11620506
160	0xbcb4e61f	-0.022082387
161	0xba3f42a7	-0.0007296004
162	0xbe236645	-0.15956981
163	0xbdb2c45e	-0.0872886
164	0x3ee202c1	0.44142726
165	0x3e8450cf	0.25842902
166	0x3e4c27ab	0.19937007
167	0xbde252b0	-0.11050928
168	0x3e137266	0.14399108
169	0xbdfec3f3	-0.12439718
170	0xbd39a6ec	-0.045325205
171	0x3d90e488	0.07074839
172	0x3e333d75	0.17503913
173	0x3baca8a3	0.0052691265
174	0xbe51ebb9	-0.20500077
175	0x3d0dc36c	0.034610197
176	0xbe95731e	-0.2918939
177	0x3d8832e6	0.06650333
178	0x3e0f3f1a	0.13988915
179	0xbe66bbab	-0.22532527
180	0xbda0ca57	-0.07851093
181	0x3e86b33b	0.26308617
182	0x3d744160	0.05963266
183	0x3e20124a	0.15631977
184	0x3cc3747f	0.02385926
185	0x3d3d9d86	0.046292804
186	0xbe5741ca	-0.2102119
187	0xbe88e2c9	-0.26735523
188	0xbb8f01ad	-0.0043642134
189	0x3eb8ad58	0.3606975
190	0x3c679767	0.014135218
191	0xbe3c2a46	-0.18375501
192	0xbd050240	-0.03247285
193	0xbe73caeb	-0.23807876
194	0xbe794ac9	-0.24344935
195	0xbdecc180	-0.11560345
196	0x3e302003	0.17199712
197	0x3e540cff	0.20708083
198	0xbe8b425f	-0.27199075
199	0xbd8e1fc3	-0.06939652
200	0x3def5777	0.116866045
201	0x3ea097dc	0.3136586
202	0xbdb59fd0	-0.088683724
203	0xbe7973b6	-0.24360546
204	0x3e87eb20	0.26546574
205	0x3ee9d457	0.45669815
206	0x3bfe564e	0.007761753
207	0x3bcb0b87	0.0061964425
208	0xbdea39e2	-0.114368215
209	0xbe8b9261	-0.27260116
210	0x3ed3c569	0.4136155
211	0x3d8d78cd	0.069078065
212	0x3eb313d5	0.34976068
213	0x3e6bf2b9	0.2304181
214	0xbd8b77aa	-0.068099335
215	0xbe4de427	-0.20106564
216	0x3db2927a	0.087193444
217	0x3d95bdba	0.07311578
218	0xbe9a1efa	-0.30101758
219	0xbe088e93	-0.13335638
220	0x3f3dcbb2	0.7413894
221	0xbf449348	-0.76787233
222	0xbea2fe2c	-0.31834543
223	0xbc1ce72b	-0.009576599
224	0xbc4824af	-0.012215777
225	0xbe931efe	-0.28734583
226	0xbc788997	-0.015169523
227	0xbda95ec0	-0.08270025
228	0xbe9c13ff	-0.30484006
229	0xbe748ccf	-0.23881839
230	0xbf6572f0	-0.89628506
231	0xbd06b374	-0.032885984
232	0x3c9d7202	0.019219402
233	0x3e9f614b	0.31128916
234	0xbde31cb1	-0.11089457
235	0x3e0aa33e	0.13538834
236	0x3e239cf2	0.15977839
237	0x3e1605a8	0.14650595
238	0xbdbce14b	-0.09222659
239	0xbe869f51	-0.26293424
240	0xbd13e933	-0.036111068
241	0xbe4ae671	-0.19814469
242	0xbc9d5a8a	-0.019208211
243	0x3e24076f	0.1601846
244	0xbd283879	-0.04106948
245	0xbf079294	-0.52958035
246	0x3d403515	0.046925623
247	0xbea17690	-0.31535769
248	0xbe6a33d5	-0.22871335
249	0xbebf3f1f	-0.37352845
250	0xbd61c524	-0.05511965
251	0x3d384d9b	0.044995885
252	0x3ec0e8df	0.37677667
253	0x3e5a54f4	0.2132147
254	0x3d73f618	0.059560865
255	0x3e4c0915	0.1992534

embedder.emb_rnn.bias_ih_l2 f4 [60]
0	0x3f87111b	1.0552095
1	0x3f7d5579	0.98958546
2	0x3f80c08b	1.005876
3	0x3f52eb6b	0.8239047
4	0x3f6fada8	0.93624353
5	0x3f769811	0.96325785
6	0x3f7d4620	0.9893513
7	0x3f89cac7	1.0765008
8	0x3f77102c	0.9650905
9	0x3f700417	0.9375624
10	0x3f65457b	0.89559144
11	0x3f6e8783	0.93175524
12	0x3f6d8f17	0.9279646
13	0x3f78d6a7	0.97202533
14	0x3f6d1812	0.92614853
15	0x3f8377ec	1.0270972
16	0x3f75f8f1	0.9608298
17	0x3f812e1e	1.0092199
18	0x3f754bbd	0.9581869
19	0x3f64e4e4	0.8941176
20	0x3f60ebb5	0.8785966
21	0x3f2cf194	0.6755612
22	0x3f7f71b8	0.99782896
23	0x3f7e13c5	0.99248916
24	0x3e8aad9a	0.27085572
25	0x3ea52ed1	0.3226228
26	0x3f23907f	0.6389236
27	0x3f8aa18b	1.0830549
28	0x3d75962c	0.05995767
29	0x3e90cf9a	0.28283387
30	0x3f7952f9	0.9739223
31	0x3f107762	0.56432164
32	0x3f4e2c86	0.8053669
33	0x3f13ee98	0.5778594
34	0x3f60b143	0.8777048
35	0x3f5e5dc7	0.8686184
36	0x3f58c068	0.8466859
37	0x3f223d8d	0.6337517
38	0x3f3bd938	0.73378325
39	0x3f3ce1aa	0.73781836
40	0x3f6cc72b	0.92491406
41	0x3f8064f1	1.0030805
42	0x3f8368fe	1.0266416
43	0x3f8147d3	1.0100044
44	0x3f80ceab	1.006307
45	0x3f69f3f6	0.9138788
46	0x3f6bc9d5	0.92104846
47	0x3f765bce	0.9623383
48	0x3f5ba81d	0.85803396
49	0x3f6903a0	0.91021156
50	0x3f697197	0.9118895
51	0x3f4ba560	0.7954922
52	0x3f6b2297	0.91849655
53	0x3f56bdac	0.83883166
54	0x3f6fe691	0.9371119
55	0x3f7978a2	0.97449696
56	0x3f82e5e8	1.0226412
57	0x3f6d9d9d	0.92818624
58	0x3f7fad5c	0.998739
59	0x3f75582c	0.95837665

embedder.emb_rnn.bias_hh_l2 f4 [60]
0	0x3d6223cc	0.05520992
1	0xbc2aa98b	-0.010416399
2	0x3bc0a6b9	0.00587925
3	0xbe345221	-0.17609455
4	0xbd8292d3	-0.06375661
5	0xbd1682c6	-0.03674581
6	0xbc2e78a0	-0.010648876
7	0x3d9caa34	0.07649651
8	0xbd0efede	-0.03491103
9	0xbd7fbf91	-0.06243855
10	0xbdd5d413	-0.104408406
11	0xbd8bc30b	-0.06824311
12	0xbd938566	-0.07203178
13	0xbce526ab	-0.02797254
14	0xbd97427e	-0.07385729
15	0x3cddeec8	0.027091399
16	0xbd207292	-0.039171763
17	0x3c1701b3	0.009216714
18	0xbd2b407a	-0.041809537
19	0xbdd8d700	-0.10587883
20	0xbdf8a230	-0.1214031
21	0xbea61c9b	-0.324437
22	0xbb0e9015	-0.002175336
23	0xbbf61de2	-0.0075108865
24	0xbf3aa998	-0.7291503
25	0xbf2d688d	-0.67737657
26	0xbeb8dfa1	-0.36108115
27	0x3daa1785	0.08305267
28	0xbf70a637	-0.94003624
29	0xbf37989e	-0.7171725
30	0xbcd59ce8	-0.026075795
31	0xbedf11cd	-0.43568268
32	0xbe474e30	-0.1946342
33	0xbed822cd	-0.4221405
34	0xbdfa75a6	-0.12229471
35	0xbe068905	-0.13138206
36	0xbe1cfeae	-0.15331528
37	0xbebb84b1	-0.36624673
38	0xbe884d28	-0.26621366
39	0xbe863da5	-0.26218906
40	0xbdb213e8	-0.08695203
41	0xba1b5bba	-0.0005926449
42	0x3cf7b39f	0.030237017
43	0x3c0b2c08	0.008494385
44	0x3ba26962	0.0049564103
45	0xbdd6ab4c	-0.10481891
46	0xbe094fe5	-0.13409384
47	0xbd725b35	-0.059169013
48	0xbe82512e	-0.2545256
49	0xbde5fa02	-0.11229326
50	0xbe753661	-0.23946525
51	0xbeb390ac	-0.35071313
52	0xbdb44d8e	-0.08803855
53	0xbdbf066c	-0.09327397
54	0xbd7e6df7	-0.06211659
55	0xbc752ac6	-0.014963811
56	0x3cee1fd8	0.029067919
57	0xbd8d92b8	-0.0691275
58	0xbc0ed683	-0.008718136
59	0xbda254d9	-0.0792634
