output/test/model.pt (torch, 150520 bytes, 65 tensors)

embedder.emb_rnn.weight_ih_l0 f4 [60, 5]
000000 3b 1b b0 3e 24 f6 b3 3d 6e 7d dc 3d ae 6f c6 bc
       0.34395775 0.08787182 0.10766111 -0.024223175
000010 72 78 c8 3e 32 38 86 be df 5f 0a 3d 0f e0 71 bf
       0.39154392 -0.2621475 0.033782836 -0.9448251
000020 b5 7f 1c 3e 7c 56 aa 3d 3c 39 01 3e 0a ec a8 be
       0.15283091 0.08317277 0.1261949 -0.32992584
000030 a3 48 84 3b 08 ae fd 3d 56 0d 1d 3f b3 e0 11 3e
       0.0040369793 0.123867095 0.61348474 0.14245872
000040 ca 34 b8 be 88 ae 88 3d e3 25 d6 bd 4c 29 13 3d
       -0.35977775 0.06673914 -0.10456445 0.035928056
000050 d5 1f c0 be 3f 74 e0 be dc 99 a0 bf f5 6b 87 3f
       -0.37524286 -0.4383869 -1.2546954 1.0579821
000060 4f 4c 9d 3e 97 1b 9d be 36 e6 6a 3e e1 78 bd 3e
       0.3072228 -0.30685112 0.22939381 0.37006286
000070 67 f6 5d be 83 a3 88 3e dc b7 bc be b8 10 6d bf
       -0.21676026 0.2668725 -0.36859024 -0.92603636
000080 dc 70 9f 3e d6 9a d4 3e 7b ab 2b bd da 24 8f 3d
       0.31140792 0.4152438 -0.041911583 0.06989451
000090 cc ea 95 bd 41 c0 bd be 12 13 8f be 2f e3 ea be
       -0.073201746 -0.3706074 -0.27944237 -0.45876452
0000a0 6c 80 9e be e3 f3 8d 3f bd 39 65 3f ab 1f a1 3f
       -0.30957353 1.1090053 0.89541227 1.2587789
0000b0 ac c9 03 3f 34 78 8a bd a2 17 ac be 4c 84 92 3e
       0.514796 -0.06761208 -0.3361178 0.2861656
0000c0 f2 49 2b bf b8 c1 15 3e 31 67 d7 3c d9 4f 0a 3f
       -0.66909707 0.14624679 0.026294323 0.5402809
0000d0 20 09 10 3e d2 62 08 3e 52 a3 0b 3e bf 33 bd 3e
       0.14065981 0.13318947 0.1363652 0.36953542
0000e0 8e d4 0c 3e 1e 10 25 3e 0a 7e 17 bf f2 6e b5 3d
       0.13752958 0.1611943 -0.59176695 0.08859052
0000f0 37 19 34 3e 27 8d 43 be 5c 9d 2e 3e b5 cb b6 be
       0.17587744 -0.19096814 0.17052215 -0.3570229
000100 bf 17 80 3d 6c c6 2b 3f 32 e3 f2 3e 70 a4 c1 be
       0.06254529 0.6709964 0.4743896 -0.37820768
000110 fa d3 9b 3e 89 27 ca be dd cc 29 3f 1b cf af 3e
       0.30435163 -0.39483288 0.6632822 0.34337696
000120 ea 96 04 be a1 3a a8 be 3d 64 c4 3d 75 58 5c bd
       -0.12948194 -0.3285723 0.095894314 -0.053795297
000130 3d 33 c3 bd 84 66 e4 be 12 c1 34 be 2f 2d 22 3e
       -0.09531257 -0.44609463 -0.17651775 0.15837549
000140 1b 26 61 3f 82 2c 72 3f 10 89 90 bf a1 b2 19 3f
       0.8794877 0.94599164 -1.1291828 0.6003819
000150 32 67 6d be 68 06 07 be 87 f8 86 bd 60 01 dd bd
       -0.23183897 -0.13186038 -0.065903716 -0.10791278
000160 26 e5 19 bf c9 46 d7 be 3e 12 12 3e 9e 4c 56 3e
       -0.6011528 -0.42046192 0.14264771 0.20927665
000170 f3 ba dd 3e d2 3f 29 3d 3f 6d 24 3e c2 5c 0f 3f
       0.43306693 0.04132063 0.16057299 0.5600091
000180 d5 ee c3 3e 26 7a 02 be ec 23 cf be 2f db b8 3e
       0.38268152 -0.12741908 -0.40457094 0.36104724
000190 61 6d 60 be e5 43 c8 be 88 b9 59 3f 0f bb 91 be
       -0.21916725 -0.391143 0.85048723 -0.28463027
0001a0 90 80 c5 be f4 b1 80 bf 66 4b 1f 3f 83 d3 1a 3f
       -0.38574648 -1.0054307 0.62224424 0.6047899
0001b0 14 55 dc be 5c fc a2 be 6b 7c 03 40 74 f5 3f bf
       -0.4303366 -0.3183316 2.0544689 -0.74983907
0001c0 2b d0 8d bf 4f 00 fd be 3f c6 9f be 7c 1e ca 3e
       -1.1079153 -0.49414298 -0.31205937 0.39476383
0001d0 66 f8 d3 bc 9a c5 cb 3d 16 67 6c 3e 7b aa 6f bd
       -0.025875282 0.09949799 0.23086199 -0.058512192
0001e0 e8 87 b1 bf 87 9e 95 bf ca d7 88 3f 3f 35 2c be
       -1.38696 -1.1689004 1.0690854 -0.16817187
0001f0 e3 1c d2 3e 26 e5 81 bf fd 50 82 be ad 72 a2 be
       0.41037664 -1.0148056 -0.25452414 -0.31728116
000200 b3 ec 70 bf 52 23 33 bf ce a4 f5 bf 6f 7f ad be
       -0.94111174 -0.6997577 -1.9190919 -0.33886287
000210 a8 f0 3b 3c fa 29 67 3e e5 ed 29 bf bf 68 93 3e
       0.011470951 0.22574607 -0.66378623 0.28790852
000220 8c 8f 05 3c 1a fe 76 be 16 c3 fa 3d 10 97 27 3e
       0.0081519 -0.2412037 0.12244241 0.1636622
000230 f3 0e 27 3f 52 2c 26 bf 1a 5c 75 bf 0a e6 af bf
       0.65257186 -0.6491138 -0.9584366 -1.3742077
000240 7f c4 2a bf 60 36 1b be 60 b2 07 3f d0 68 67 3f
       -0.6670608 -0.15157461 0.53006554 0.90394306
000250 96 24 42 bd 83 d7 ae 3e be a5 58 bf e9 65 14 bf
       -0.047398172 0.34148797 -0.846279 -0.57968
000260 25 a0 b1 3b 13 f6 90 3e 0c 02 92 be 8a 9d b0 bf
       0.005420702 0.2831274 -0.28517187 -1.3798077
000270 68 42 ef 3e 58 14 72 3f 65 a6 b0 bf 69 7a a9 bd
       0.4673035 0.9456229 -1.380078 -0.08275301
000280 73 47 ed bf bc 05 64 bf 29 5c 29 3e b1 99 23 bf
       -1.853743 -0.8907125 0.16539063 -0.6390639
000290 ea f5 a2 bd 0d a6 53 bf 8a 7a 62 3c d8 0b 25 40
       -0.07957061 -0.8267525 0.013823161 2.578848
0002a0 27 c6 4b 3f a7 f8 33 3e f7 5c 4e 3f a2 f1 c5 be
       0.7959923 0.17575322 0.80610603 -0.38660914
0002b0 bd 64 36 bd 8c 32 b8 bd 0a 11 e7 be a7 11 30 bf
       -0.044529665 -0.08994016 -0.45130187 -0.68776935
0002c0 43 c6 5b bf 6a 6d df 3e d6 78 9f bc 75 86 67 3d
       -0.858494 0.43638164 -0.019466799 0.056524713
0002d0 e9 8f 74 bf fa b2 4b 3f e0 f2 78 be 1d 71 f4 be
       -0.9553209 0.7956997 -0.243114 -0.4774255
0002e0 74 8b 9c be c4 60 6d 3f 87 72 c3 3e 6d e2 e1 be
       -0.30575144 0.9272578 0.38173315 -0.44118062
0002f0 1c d3 58 bf ec be 77 bf ed 41 4a be ec 14 20 bf
       -0.8469713 -0.967757 -0.19751711 -0.62531924
000300 30 f2 84 be d8 81 af be b7 20 91 be b5 f0 92 3f
       -0.25966024 -0.3427875 -0.28345272 1.1479708
000310 f6 13 ff bf ab 00 b8 bf f1 aa ba 3e ef 0d 68 3f
       -1.9927967 -1.4375204 0.36458543 0.9064626
000320 d3 af e5 be 37 58 e8 be 2e 60 ca be d4 72 05 be
       -0.44860706 -0.45379803 -0.39526504 -0.13032085
000330 a1 a4 98 be 1a 20 25 3f a3 e2 31 be 2a f1 20 3f
       -0.29813102 0.6450211 -0.17371611 0.6286799
000340 98 e9 5c bd 4b 17 88 3d c4 78 84 be 8d df 0b 3e
       -0.05393371 0.06645068 -0.25873387 0.13659497
000350 48 19 31 bc 9e 41 40 3e b4 7d 45 bf 93 9f 36 be
       -0.01080925 0.18775031 -0.7714493 -0.1783431
000360 17 97 52 bc 70 a7 20 be 2a c5 0e 3e 84 58 3d 3e
       -0.012853405 -0.15688872 0.139424 0.18490797
000370 23 73 00 3f 86 12 33 3f 62 e5 fd bf a0 46 39 3f
       0.50175685 0.6995014 -1.9835627 0.7237339
000380 0e d7 26 bf 97 db 62 3e cc 5a aa bd 84 98 60 be
       -0.651719 0.2215408 -0.083180994 -0.2193318
000390 0d a9 18 3e 7d 52 91 be 83 ce 31 3f dc b7 27 3e
       0.14908238 -0.28383246 0.69455737 0.1637873
0003a0 e2 db d3 3c e9 5f 77 bf cf 14 1e bf 9f 87 96 3e
       0.025861684 -0.9663072 -0.617505 0.29400346
0003b0 2c 9f 8b be 11 aa 88 be ab 8a d9 bd b0 77 cf be
       -0.27269876 -0.2669225 -0.10622152 -0.40521002
0003c0 b8 86 ce bf 3a a7 a8 be 50 9b 84 3f 14 a8 93 3f
       -1.6134863 -0.32940084 1.0359898 1.1535668
0003d0 80 84 8c 3e 4e 04 d3 be a7 03 93 be 28 a7 c4 be
       0.2744484 -0.41214222 -0.28713724 -0.3840878
0003e0 d8 59 e6 bd 1a 0d 90 3d b3 5b 5f 3d 95 12 08 3f
       -0.11247605 0.07033749 0.05453081 0.53153354
0003f0 9e 2a 09 be 33 17 90 3e ef 8b 10 be a4 5a a7 3e
       -0.13395163 0.281427 -0.1411588 0.3268634

embedder.emb_rnn.weight_hh_l0 f4 [60, 20]
000000 04 4e aa 3c bf 0d 8f be 54 58 bb 3d b4 91 83 bd
       0.020789154 -0.27940175 0.09147707 -0.06424275
000010 1c 54 7c be 50 bd 87 be bb b5 37 bc af 08 b4 be
       -0.2464146 -0.2651162 -0.0112127615 -0.35162875
000020 ff b3 15 3e 37 60 d5 3d 9d d8 3d 3e 67 ae 44 3e
       0.14619444 0.10418742 0.18539663 0.19207154
000030 de f1 10 be 00 a0 b1 bd 11 d6 31 3e 0a 9b 7a 3d
       -0.14154765 -0.08673096 0.17366816 0.061183013
000040 f5 6c 6f 3e e1 d9 62 be f5 bb e6 3c 96 a3 7e bd
       0.23381408 -0.22153427 0.028165797 -0.062167726
000050 6b 83 d6 bb 8b 2f 87 be f0 00 1c 3e b4 f2 7b be
       -0.006546428 -0.2640346 0.15234733 -0.24604303
000060 61 fe 23 3d 7b 15 d0 3d ec ea c8 be e2 38 8c bd
       0.040037517 0.10160347 -0.3924173 -0.06846787
000070 30 8d a7 be 0e 10 43 bd 57 fb c7 3d 3a 5b 12 3e
       -0.32724905 -0.047622733 0.09764736 0.14292613
000080 f2 02 10 3f 01 11 dd 3d 1d fe 8f 3e 58 0c 48 be
       0.56254494 0.10794259 0.2812356 -0.19535959
000090 b6 7a b5 be d5 ea 1f 3d 2c 71 f2 3c 65 eb 37 bd
       -0.35445184 0.039042313 0.02959498 -0.044902224
0000a0 04 51 5d bb aa 9c 2b 3d b0 85 d0 3e ef 18 bb 3d
       -0.0033770213 0.041897453 0.40726995 0.09135615
0000b0 4e 09 26 bc 1a a0 bf bc 5a 08 5d 3d c6 dd 85 be
       -0.010134054 -0.023391772 0.053963043 -0.26145762
0000c0 57 29 0f 3e f2 46 27 3d 3f d5 87 3b e8 2f 80 3e
       0.13980614 0.040839143 0.004145294 0.2503655
0000d0 f7 f5 5d bd 2b a5 d0 bd ee 5e 92 be e6 94 42 3e
       -0.05418965 -0.10187753 -0.2858805 0.19002113
0000e0 5b 16 af bd 9f 94 84 be 5e d0 8a 3e 73 d1 1f be
       -0.08549186 -0.2589464 0.27112097 -0.15607242
0000f0 1f ea 49 3e 2e 57 5b 3e 85 67 31 be 45 83 c5 3d
       0.19718216 0.21419975 -0.17324646 0.09644178
000100 04 42 27 3e 57 4e 9b be 83 d8 4a be 1b 34 d7 bb
       0.16333777 -0.30333206 -0.19809155 -0.0065674908
000110 bb 54 5e 3d b5 b1 89 be ee 7c 8d be 3e f6 9a 3e
       0.054280024 -0.26893392 -0.27634376 0.30265993
000120 a6 d4 9b bd 18 c2 b7 be e5 dc 3a 3d 5d 54 64 be
       -0.07608919 -0.3589027 0.045620818 -0.22297807
000130 87 bf 0f be c8 31 41 be 1c 26 72 3e fa 05 3b 3d
       -0.14037906 -0.18866646 0.2364735 0.045659997
000140 54 b7 d6 3e 37 42 75 be 92 6f 05 bf b0 83 57 be
       0.41936743 -0.2395104 -0.5212337 -0.21046329
000150 49 83 a5 3e 45 d8 d6 bc f7 d6 b3 bd 1b c9 09 3e
       0.32326725 -0.026226172 -0.08781236 0.13455622
000160 41 b2 e5 bd ae a4 17 be 2d e0 6b be aa 37 25 3f
       -0.1121564 -0.14808914 -0.23034735 0.6453806
000170 53 f9 07 3e 98 0a ba 3e e1 a2 f5 bb ed 57 80 be
       0.13278703 0.36336207 -0.0074962233 -0.25067082
000180 e2 12 26 3e f0 d3 93 be 23 9f ae be c6 3d 92 be
       0.1621814 -0.28872633 -0.34105787 -0.28562754
000190 7e 22 c8 bc 0d d6 9c bc 28 03 91 3e 0b 01 62 3d
       -0.02443051 -0.019145036 0.2832272 0.055176776
0001a0 fb 1f c5 be 3a 76 d1 3b 9d 32 4e 3e 97 8d 63 bd
       -0.38500962 0.0063922675 0.20136495 -0.055554952
0001b0 46 c6 69 3e a7 03 51 3e 63 fd 8a 3d ac 79 9b be
       0.22829542 0.2041155 0.06786611 -0.30366266
0001c0 8c 88 6c 3e bf 64 0b 3d e8 e6 ce bd 12 d6 fd bd
       0.23098963 0.034031626 -0.101026356 -0.12394346
0001d0 84 c1 58 be 9a 49 76 3e 06 c4 a6 bd b1 c9 6b 3e
       -0.2116757 0.24051514 -0.08142857 0.23026158
0001e0 37 d1 3a bb 57 45 08 3e ef 77 a2 3e f4 f9 eb 3d
       -0.002850605 0.13307701 0.31732127 0.11522284
0001f0 ca 4d 74 3d 88 a5 65 3e 29 50 bc bd e8 de 57 3e
       0.059644498 0.22426426 -0.09194977 0.21081126
000200 df 4f 17 bd 03 5d 2f 3e 06 f7 de 3d d8 c8 02 3d
       -0.036941405 0.17125325 0.1088696 0.03192982
000210 a7 9d 06 3e 9b d2 24 bf 90 a9 80 be cd 50 46 3c
       0.13146077 -0.6438386 -0.25129366 0.012104225
000220 bc 35 96 3e 97 7c 07 3d 22 2d 8e 3e da 47 da 3d
       0.2933787 0.033077803 0.2776881 0.10658236
000230 50 d8 b1 bd ee 6f 4b 3d f3 e3 b0 bd ae 2d 90 be
       -0.086838365 0.04966729 -0.08637228 -0.2815985
000240 56 c3 a6 3d 84 28 c3 3d 34 bd 2a 3d a7 e9 24 bd
       0.08142726 0.09529212 0.041684344 -0.04026189
000250 74 91 2c 3a ea cd 19 3d 77 d1 28 3d e1 3f 83 be
       0.00065829535 0.03754989 0.041215386 -0.25634673
000260 bf 61 2f 3e 5c 07 0b 3c c0 ac 32 be 9f 10 07 be
       0.17127131 0.008485641 -0.17448711 -0.13189934
000270 e1 a5 65 bd c6 d8 56 be ea 7a 83 be 36 6d 1c 3e
       -0.056066398 -0.2098113 -0.25679713 0.15276036
000280 88 c6 2c 3c bd 45 17 be 78 f7 ef 3e b9 22 96 bd
       0.01054538 -0.14772697 0.4686849 -0.073308416
000290 29 89 60 3e ab 4b 9a 3e 12 52 21 be 24 bd 87 bd
       0.21927322 0.30135855 -0.15753964 -0.066278726
0002a0 87 67 61 3e eb 5d db be 95 ab 66 bc 16 28 1f 3f
       0.22012149 -0.4284509 -0.014078994 0.6217054
0002b0 09 b8 0e 3e a3 11 55 bf 39 91 93 3e 52 36 b1 bd
       0.13937391 -0.83230036 0.28821734 -0.08652939
0002c0 43 bd 9a 3e 44 d8 50 3e 68 0d 24 bd d1 d5 8b 3e
       0.3022252 0.20394999 -0.040051848 0.27311566
0002d0 cb 33 1f be 66 56 1d be 3c d4 14 be f1 51 fa bd
       -0.15547101 -0.1536499 -0.14534086 -0.1222266
0002e0 48 2e e5 be b3 d2 cf be 02 fc ca be 34 53 fb be
       -0.44761872 -0.40590438 -0.39645392 -0.49086916
0002f0 c8 3e b8 be 01 6b 2d be 06 02 39 be 3a ca 5f 3e
       -0.35985398 -0.1693535 -0.18067178 0.21854487
000300 d4 f5 ef 3c 63 d9 1c 3f 13 c1 48 3f 12 83 15 be
       0.029292025 0.61269206 0.7841961 -0.1460078
000310 6f eb 89 be db 31 cf bd 03 d3 da be 67 2a b1 bd
       -0.26937434 -0.10116931 -0.42739114 -0.08650666
000320 73 5f 22 bd ad 82 9c be 0a ec 95 3e 85 68 8b be
       -0.03964181 -0.30568448 0.29281646 -0.2722818
000330 51 6f d0 3d 93 a4 2b bd 23 21 8d be 36 26 92 bd
       0.10177482 -0.041904997 -0.27564344 -0.071361944
000340 3e 9e 87 be 3c 0e c1 be b0 6c f9 bc 0c d0 4e be
       -0.26487917 -0.37706172 -0.030447334 -0.20196551
000350 ea 53 0b be 8a 59 60 bd 61 ce 86 3e 5a e0 84 be
       -0.1360623 -0.05477289 0.2632933 -0.25952417
000360 75 a8 9c be 07 72 0b bf ef 78 36 3d d8 7e 93 3e
       -0.30597273 -0.54470867 0.044548925 0.28807712
000370 af 4d 07 bd 46 93 0c be f2 24 25 bd 29 7e 34 3c
       -0.03303307 -0.13728055 -0.040318437 0.011016407
000380 97 b3 bf bc 01 df 1b 3d f7 df 5a be a4 65 7b be
       -0.023401065 0.03805447 -0.21374498 -0.24550492
000390 99 10 a6 bd 0d a6 04 be 9a 2d 25 3d 79 fb 21 3e
       -0.081086345 -0.12953968 0.040326692 0.15818585
0003a0 c9 34 96 be 1c 53 94 3e aa 45 21 be 97 7a 58 3d
       -0.29337147 0.28969657 -0.15749231 0.052851286
0003b0 a8 6f 26 be 45 c5 39 3e 4b 1a 83 3e ae 78 41 be
       -0.16253531 0.18141659 0.25605997 -0.18893692
0003c0 42 ac a3 3d b0 3e 25 bc c7 63 a6 be 91 ed 27 bc
       0.0799184 -0.010085747 -0.32498 -0.010249511
0003d0 4f 30 f1 bd 9e 1a 0f 3e 0e 8f 06 3e 07 26 3d bd
       -0.11776792 0.13974997 0.13140509 -0.046178844
0003e0 aa 13 95 3a b8 93 a4 3d 86 91 96 bd 86 97 db 3d
       0.0011373658 0.080359876 -0.07351975 0.1072226
0003f0 48 eb 14 be 23 86 48 3e e5 a5 35 be 75 b1 11 be
       -0.14542878 0.19582419 -0.17739065 -0.1422785

embedder.emb_rnn.bias_ih_l0 f4 [60]
000000 f6 b9 73 3f 09 1e 6c 3f 85 ba 7f 3f 2c 4e 72 3f
       0.9520563 0.9223333 0.9989398 0.9465053
000010 ec 93 49 3f 05 65 82 3f 7b f5 82 3f a9 90 74 3f
       0.78741336 1.0187079 1.0231165 0.95533234
000020 d6 1f 50 3f 1e b7 51 3f 56 f7 60 3f 80 d8 84 3f
       0.8129858 0.8192004 0.87877405 1.037857
000030 95 f9 8a 3f 96 c2 80 3f cd 1e 8a 3f 58 e7 81 3f
       1.0857416 1.0059383 1.079065 1.0148726
000040 67 a0 64 3f f1 89 64 3f 15 33 74 3f 11 9b 83 3f
       0.89307255 0.8927298 0.95390445 1.0281698
000050 b6 8b 77 3f 72 06 09 3f af fc c6 3e d5 de 71 3f
       0.96697557 0.5352546 0.38864657 0.9448064
000060 e3 e9 40 be 16 7f 30 3f 9c e6 fa 3e 02 1e 77 3f
       -0.1883922 0.6894392 0.49004066 0.96530163
000070 6d c5 84 3e 38 8e 53 3f 2e 44 40 3f 13 f9 d9 3e
       0.25931874 0.82638884 0.75104034 0.4257284
000080 ee f8 03 3f ad f8 26 3f 3c c8 58 3e 7b 0f 37 3f
       0.5155171 0.652232 0.21170133 0.71507996
000090 d5 e7 48 3f 01 da d3 3e 72 30 81 3f 55 15 43 3e
       0.7847875 0.4137726 1.0092909 0.19051106
0000a0 cb 80 66 3f 94 b6 85 3f 2d 2b 78 3f ec 87 8a 3f
       0.9004027 1.0446343 0.9694088 1.082273
0000b0 28 b4 25 3f 52 ea 85 3f 2c f1 72 3f 27 71 80 3f
       0.6472802 1.0462134 0.9489925 1.0034531
0000c0 86 e4 68 3f b5 0b 78 3f 73 ff 82 3f 68 c7 69 3f
       0.909737 0.96892864 1.0234207 0.91319895
0000d0 c2 5b 60 3f ab 1f 60 3f 4e 9e 23 3f e7 a0 89 3f
       0.8764001 0.8754832 0.6391343 1.0752228
0000e0 af de 7d 3f 98 19 7a 3f 1b fd 81 3f fe d8 81 3f
       0.99167913 0.976953 1.0155367 1.0144346

embedder.emb_rnn.bias_hh_l0 f4 [60]
000000 4f 5f 44 bd ba 12 9f bd a6 77 8a ba 2f 1a 5b bd
       -0.047942456 -0.07767244 -0.0010564222 -0.053491767
000010 5c af 59 be fb 47 99 3c a9 56 bd 3c a8 f2 36 bd
       -0.212583 0.01871108 0.023112612 -0.04466501
000020 45 80 3f be aa 23 39 be 39 44 f8 bd f4 12 1b 3d
       -0.18701275 -0.18080011 -0.121223874 0.037859872
000030 be 97 af 3d 03 8e c2 3b 79 ed a1 3d 0e c2 73 3c
       0.085738644 0.0059373393 0.079066224 0.014877809
000040 90 fe da bd e1 b0 db bd 31 d0 3c bd 24 c2 e6 3c
       -0.10693085 -0.10727096 -0.046096984 0.028168745
000050 5d 41 07 bd ba f3 ed be be 81 1c bf f2 0f 62 bd
       -0.03302132 -0.4647501 -0.6113547 -0.055190988
000060 4b 1d 98 bf d9 01 9f be 8e 8c 02 bf 45 1f 0e bd
       -1.188394 -0.31056097 -0.5099572 -0.03469779
000070 39 9d 3d bf a5 c6 31 be ed ed 7e be 95 03 13 bf
       -0.7406803 -0.17360933 -0.24895449 -0.5742734
000080 c3 0d f8 be 3a 0e b2 be bf cd 49 bf ce e0 91 be
       -0.48448 -0.3477648 -0.7882957 -0.28491825
000090 e9 60 5c be ff 12 16 bf 8c 45 18 3c c8 3a 4f bf
       -0.21521343 -0.58622736 0.009293925 -0.8094907
0000a0 d7 8e cd bd de bb 60 3d 92 66 2c bd fa d3 b5 3d
       -0.1003701 0.054866664 -0.042090006 0.08878322
0000b0 70 b0 30 be b5 b9 22 3d ae cd d6 bd 12 08 70 3c
       -0.17254806 0.039727885 -0.10488449 0.014650362
0000c0 b6 41 ea 3d ab 27 ae bd 60 54 17 3d 62 0d c9 bd
       0.114383146 -0.0850366 0.0369457 -0.09817006
0000d0 17 40 02 be b4 2e 31 be 10 13 bf be 90 70 a7 3d
       -0.12719761 -0.17302972 -0.3731923 0.081757665
0000e0 2d 3c 79 bb 66 59 9a 3d 2c 06 04 3d 1a 1a 3e 3d
       -0.0038030252 0.07536583 0.03223245 0.04641161

embedder.emb_rnn.weight_ih_l1 f4 [60, 20]
000000 74 ee b6 bd 4a 75 74 3e 60 a9 35 be 00 9a 16 be
       -0.089322 0.23872867 -0.17740393 -0.14707184
000010 34 81 7d be de cd 12 3e 88 61 9d be f8 3b 1a be
       -0.24756318 0.14336345 -0.30738473 -0.15061939
000020 4a 0a f7 3d 7e eb 8a be 96 9e 65 be 0f 71 8a be
       0.12062509 -0.2713279 -0.22423777 -0.27039382
000030 00 7c f6 bd 4b 11 00 bd 78 d4 2f be 59 a3 01 be
       -0.1203537 -0.03126649 -0.17170894 -0.12659968
000040 5a bf c9 3d 9d 7b 62 3e 9b a2 a4 bc 3d f8 35 be
       0.098509505 0.22117467 -0.020097068 -0.17770477
000050 7e a1 4b 3b 8c 89 ea bb 47 1c b7 be b4 4c 81 bc
       0.0031071599 -0.00715751 -0.3576376 -0.015783645
000060 32 ec 0d 3e 8d 55 61 be 46 00 05 be 0f 16 b0 be
       0.13859633 -0.22005291 -0.12988386 -0.3439183
000070 95 76 4a bc 01 79 d6 bd f4 e4 0c be 86 64 30 bf
       -0.012357374 -0.104722984 -0.13759214 -0.68903387
000080 6a ca a4 bb 54 d9 00 3d af f0 28 3e 22 84 1d be
       -0.0050290124 0.03145726 0.16498064 -0.15382436
000090 0a 4e ce bd ae ce ee 3d 6e f9 00 be 26 73 54 3d
       -0.100734785 0.11660515 -0.1259515 0.051867627
0000a0 4d 83 ef 3d 19 03 95 3e b0 09 e3 3d 64 a8 54 3e
       0.116949655 0.29103926 0.11085832 0.20767361
0000b0 87 c9 8a 3e e7 95 ae 3b 8c 45 85 3e 8d d6 c4 bd
       0.27106878 0.0053279283 0.26029623 -0.09611235
0000c0 fa 2a 16 bd 1f 20 29 3d ab f5 d0 bd 51 a5 ba bd
       -0.03666208 0.0412904 -0.102031074 -0.09113563
0000d0 be 1d 81 3e 6c 42 18 3e b8 15 8e bd aa 5a b3 bb
       0.25218004 0.14869088 -0.06937736 -0.0054734545
0000e0 a8 4d 1c 3e 49 10 75 3e 98 0c 2f bd 2a ce 3d 3e
       0.15263999 0.23931994 -0.04273662 0.18535677
0000f0 85 99 1b be 4d 75 61 3e 9a ef ac 3e 40 b4 c1 3c
       -0.15195282 0.22017403 0.3377655 0.02364552
000100 84 cb 0c bd 56 d2 93 bd 2a 27 06 bd f5 2f d5 bd
       -0.034373775 -0.07217853 -0.032752194 -0.10409538
000110 df 5f de bc 00 53 e1 bb 7e 4c 1f 3e 05 75 e3 be
       -0.027145324 -0.0068763494 0.15556523 -0.44425216
000120 c9 ca 2e 3e 9c 12 8e 3d 54 e4 04 be 5f f1 10 3e
       0.17069544 0.06937143 -0.12977725 0.14154576
000130 c2 ed c8 bd 20 7a d1 bc ee 94 75 3e d5 66 87 3e
       -0.09810974 -0.025570929 0.23982593 0.26445642
000140 4a d6 7d 3e b2 45 44 be 5e 31 8b 3d 9c 9c 93 3d
       0.24788776 -0.19167212 0.067965254 0.07207605
000150 9e 5c 24 bd b8 78 f4 3c b0 b6 17 3d f2 82 e4 bc
       -0.04012739 0.02984272 0.03703946 -0.02789447
000160 11 49 bc 3d 74 1b a0 bd 30 1d a2 be 81 eb e0 be
       0.09193624 -0.07817736 -0.31662893 -0.43929675
000170 3e 13 a1 3f 0c ef bd 3e ac e6 d7 bd 29 96 90 bc
       1.2583997 0.3709644 -0.10542044 -0.017649727
000180 44 07 1b be d3 49 32 bd 7e 9e 08 be d2 d3 e2 3e
       -0.1513949 -0.043527436 -0.1334171 0.4430223
000190 ee bb db 3d 05 2f 92 be 80 de 29 be c9 30 7d bd
       0.10729204 -0.28551498 -0.16588783 -0.061814103
0001a0 b0 7d 59 3e cb 98 2a 3e 05 22 86 3d 09 be 02 be
       0.21239352 0.16659848 0.065494575 -0.12767805
0001b0 f5 34 6b 3d b9 40 83 3d e0 01 83 3e dd 3b a9 3e
       0.05742355 0.06408829 0.25587368 0.33053485
0001c0 8a 91 a7 3e 49 4a 98 3e 85 f5 fa 3e 40 0f 0d 3e
       0.32728225 0.29744175 0.49015442 0.13775349
0001d0 8f 9a 47 3e bc 4c 1a be 53 73 6b 3e f2 d4 80 3d
       0.19492553 -0.15068334 0.22993211 0.06290616
0001e0 aa e6 92 3d d7 f1 61 bd 59 86 f3 3c dd ab 0a 3e
       0.07172902 -0.055162277 0.029727148 0.13542123
0001f0 0f 52 a6 3d 2f 7a c2 bd 55 15 38 3d b2 b3 ab be
       0.0812112 -0.09495961 0.04494222 -0.33535534
000200 52 8c 93 bd 0c 68 31 be d0 f2 8d be c0 18 30 3e
       -0.07204498 -0.17324847 -0.27724314 0.17196941
000210 bd 0b c0 3e 0a bf 23 bf f6 31 9a 3d 3f b9 91 3d
       0.37508956 -0.6396338 0.075290605 0.07115411
000220 8c bc 64 3e b6 4a 69 be cf e3 5c be 47 69 14 3e
       0.2233755 -0.22782406 -0.21571277 0.14493285
000230 08 2c 84 3e 3d 26 0e be 11 50 d7 bd 0d 83 58 bd
       0.25814843 -0.13881774 -0.10513318 -0.052859355
000240 39 25 04 3e a3 0e 84 bd df 7b 8a be fb 1b 13 be
       0.12904824 -0.06448104 -0.2704763 -0.14366142
000250 b1 ee 22 be bc 9b 22 3e 71 6c 47 be 58 ce b3 3e
       -0.15911366 0.1587972 -0.19474961 0.35118365
000260 c9 c5 02 3c e5 b3 02 3c 77 cd 07 bd 03 b2 0b 3e
       0.007981726 0.0079774605 -0.03315493 0.13642125
000270 57 ac 28 be b4 ce e8 bc 03 51 76 3e 52 73 bb bc
       -0.16471992 -0.028418876 0.24054341 -0.022882137
000280 25 6e 28 bd 2c 75 38 3e fe 9b 4b be 7f a6 f1 bd
       -0.041120667 0.18013448 -0.19883725 -0.11799335
000290 72 44 0e bf d6 47 9c be 11 13 35 3d 71 e2 26 3d
       -0.5557319 -0.30523556 0.044207636 0.040743295
0002a0 20 60 3a be 24 86 24 be 34 05 9f bd 49 94 c6 3e
       -0.18200731 -0.16066796 -0.07764664 0.38785008
0002b0 32 7d b5 3b d1 af c1 be 2a 6c 97 be 1f f9 ed bd
       0.005538606 -0.3782945 -0.2957471 -0.11619782
0002c0 38 a9 2c 3e 17 43 92 be 13 d2 69 be 98 2a 86 be
       0.16861427 -0.2856681 -0.22834043 -0.2620437
0002d0 38 dc 13 3b c0 88 09 3e 2c c6 0a 3e 14 f4 d8 bd
       0.002256168 0.13431072 0.13552159 -0.10593429
0002e0 c4 a5 14 3e 98 ee a1 3e 27 b1 39 be dd ed 85 3e
       0.1451636 0.31627345 -0.18133985 0.26158038
0002f0 d2 3a c1 3d 87 78 4d 3e ea dd 92 3e 73 14 9c 3d
       0.09435047 0.20065509 0.28684932 0.07621088
000300 e9 eb 1e be 01 10 99 be 19 67 a3 3e 71 e9 ce bd
       -0.1551968 -0.29895023 0.31914595 -0.10103119
000310 8e d7 81 3e 68 42 c8 bd bb 5d ed 3d f8 b1 d1 bd
       0.25359768 -0.09778291 0.11590143 -0.10239023
000320 2e 72 d7 3e 3f 13 4e be 26 62 3e bd ae e8 07 be
       0.420793 -0.2012453 -0.04648032 -0.13272354
000330 4e 65 a3 be 9e ee ad 3e eb df db 3d b8 72 0f be
       -0.31913227 0.33971113 0.10736068 -0.14008605
000340 b8 b0 40 be 54 b6 cc bd 44 ef 85 3d db ad 17 3f
       -0.18817413 -0.09995714 0.06539777 0.5924966
000350 01 68 a0 3e c0 61 6d be 90 82 2c 3e db 09 72 3e
       0.3132935 -0.2318182 0.1684668 0.23636572
000360 4b 90 37 be 21 d4 23 be 9b a1 99 be 65 68 bd 3e
       -0.17926137 -0.1599889 -0.30006108 0.3699371
000370 af 99 b2 3e d7 23 f2 bd 5d 54 85 bc 78 7a 1f 3e
       0.34882876 -0.11823242 -0.01627558 0.15574062
000380 76 55 50 3e bf ca 57 3e 21 01 00 3e 71 5b 9b 3d
       0.20345101 0.21073435 0.1250043 0.075858004
000390 4c 80 9f 3d ea 4c 9f 3d ba a1 00 3d ae 73 00 3e
       0.077881426 0.07778342 0.031404234 0.12544128
0003a0 ba 4d 62 be 55 0b fe 3d 17 28 b6 be d1 fa a2 bd
       -0.22099963 0.12404505 -0.3557746 -0.07957996
0003b0 9e 84 5a be b7 e8 a0 3e 92 76 05 bd 44 17 a0 be
       -0.21339652 0.31427547 -0.03258378 -0.3126775
0003c0 85 5d 74 be 3b 58 c2 3d ed f9 c5 3d 30 4f 6e 3e
       -0.238638 0.09489485 0.0966681 0.23272395
0003d0 d7 32 96 3e 49 22 2d be 75 f7 8a 3e bf 89 96 3e
       0.29335663 -0.1690761 0.2714192 0.29401967
0003e0 b0 8b 8b 3d 78 54 29 be 50 35 19 be e8 23 0d be
       0.06813753 -0.16536129 -0.14961743 -0.13783228
0003f0 a1 be d1 3d c8 42 66 3e 1d 6b 54 3e 56 a2 8f bd
       0.10241438 0.22486413 0.20743985 -0.07013385

embedder.emb_rnn.weight_hh_l1 f4 [60, 20]
000000 31 10 66 3e 80 1b 07 bd 4a 7f 71 be 69 a1 a4 be
       0.22467114 -0.03298521 -0.23583713 -0.32154396
000010 56 02 e2 bd d3 76 1b be 45 ee 99 be c5 5f ec 3d
       -0.11035602 -0.15182047 -0.30064598 0.11541704
000020 64 8f ef bc 27 10 23 3c a7 92 da 3d ae 61 98 be
       -0.029243179 0.0099525815 0.10672503 -0.29762024
000030 bb f6 1d 3e 24 8a 2a 3e 5d 38 a7 3d d3 c2 4e 3e
       0.15426151 0.16654259 0.08165047 0.20191507
000040 fc 1d d5 bb 81 2d 7c be 6b d7 78 3e 85 c8 a6 be
       -0.0065038186 -0.24626733 0.24300925 -0.3257486
000050 39 29 80 be 6d c7 32 3e 20 ad 8d be 40 09 16 3d
       -0.2503145 0.17458887 -0.27671146 0.036629915
000060 fa 9f e1 be d1 2a 93 3d 14 04 4e be 79 a6 f2 bc
       -0.44067365 0.07185901 -0.20118743 -0.029620396
000070 cf 4e 22 3e 1b f1 d3 be 08 9c 0d 3e 41 2a be bd
       0.15850376 -0.41394886 0.13829052 -0.09285403
000080 6a 90 fa be 49 cd 36 bb a2 70 de be f5 c7 e7 3e
       -0.48938304 -0.0027893356 -0.43445307 0.45269743
000090 c8 0d 0d be 4e 5d 74 be 6d 4f 92 bd 41 a4 11 3f
       -0.13774788 -0.23863718 -0.071440555 0.56891257
0000a0 0d e6 68 be 93 dc 36 3e c3 18 0d 3e 75 37 50 be
       -0.22744007 0.1785758 0.13778977 -0.20333655
0000b0 d7 22 a2 3e fb f9 00 be ef ca 7f 3d ea 8f 19 bd
       0.31667206 -0.1259536 0.062449392 -0.037490763
0000c0 4a 75 77 3e 9f 10 3c be 62 88 fb bc 89 e5 66 bd
       0.24165836 -0.18365715 -0.03070468 -0.056371246
0000d0 8c e5 84 3d aa 99 82 3d 97 f0 18 be 1e b8 19 bd
       0.06489095 0.06376965 -0.14935528 -0.037529103
0000e0 26 a5 42 bc 2d 58 d7 3b 88 20 2b 3d 92 80 b9 3e
       -0.011880195 0.0065717907 0.04177907 0.36230904
0000f0 bf 98 4e 3e 55 40 0f 3e 36 ae c7 bd 0a 98 fd bc
       0.20175456 0.13989384 -0.09750025 -0.030956287
000100 af 92 2f 3e 08 3f 3f 3c 44 6b 92 3d a6 e7 3a 3e
       0.17145799 0.011672743 0.071493655 0.1825243
000110 84 34 9f bd d5 73 9e be b3 d9 d6 bc 00 b1 02 be
       -0.077736884 -0.30947748 -0.026226854 -0.12762833
000120 3a c6 81 3e 62 3b 59 3e ef 37 46 be 2b e4 8d 3e
       0.25346547 0.21214059 -0.19357274 0.2771314
000130 0e 8f b6 3b 77 f6 c5 bc 83 19 58 be df 55 08 3f
       0.0055712527 -0.024165375 -0.21103482 0.5325603
000140 ee cd 51 be ea 52 8d be 14 22 30 bc 43 16 8a bd
       -0.20488712 -0.2760232 -0.010750312 -0.06742527
000150 7a bb 8e 3e 3a d5 1c 3e ba a2 a0 bb 84 ab d6 3d
       0.27877408 0.15315714 -0.004902211 0.10481933
000160 ec 70 a3 be a9 b9 1d bd 43 8d 26 3e 3a 27 96 bd
       -0.3192209 -0.038507137 0.16264825 -0.073317006
000170 4c 5e 44 3e f5 da ff 3d 07 48 ad 3e 0a e7 3c be
       0.19176596 0.124929346 0.33844015 -0.1844751
000180 5d d9 37 be 44 6f d3 3e 0b d8 1c be 1d 7f f7 be
       -0.17954011 0.41295826 -0.15316789 -0.48339167
000190 9b 20 04 3d 49 e2 87 bd 0a a2 67 be c0 44 a9 3e
       0.032257657 -0.06634957 -0.22620407 0.33060265
0001a0 d3 cb e6 3d e8 33 3e 3e 3a af cc 3d 0a 8a 62 3e
       0.11269345 0.18574488 0.09994359 0.2212297
0001b0 76 1d c6 bc 27 0c 91 3e bf d7 3d 3e 76 b3 d3 3c
       -0.02418397 0.28329584 0.18539332 0.02584241
0001c0 40 d2 b8 3c 1f d9 40 be 74 6f 88 3d 1c 59 58 ba
       0.022561193 -0.18832825 0.06661883 -0.00082530244
0001d0 82 46 2f be 6d 2a 06 bf d3 cb 50 be 19 c1 9d 3d
       -0.1711674 -0.52408487 -0.20390253 0.07702846
0001e0 0c fd 21 be 2a 4f 98 be ba ec cf bd e3 49 7d be
       -0.15819186 -0.29747897 -0.10152574 -0.24735217
0001f0 ff 69 d0 be 01 22 87 3e f0 49 bd 3d e5 30 ea 3d
       -0.4070587 0.2639313 0.09242618 0.11435107
000200 99 00 42 3e 74 f7 a1 3d 71 57 8f be 23 4d 19 be
       0.1894554 0.07908526 -0.279964 -0.14970832
000210 9f a2 0c bc 26 73 19 be 70 f4 5d 3e fa e2 54 3e
       -0.008583694 -0.14985332 0.21675277 0.2078971
000220 92 28 84 be ad 35 01 bd 71 4e 2e 3d f1 d5 3b be
       -0.25812203 -0.03154533 0.042555276 -0.18343331
000230 65 e1 78 be 4a 35 8c 3e f0 dd 95 bd 86 84 e3 3d
       -0.24304731 0.27384406 -0.07317722 0.11109261
000240 d8 70 91 be 63 39 3a 3e 4e 48 e1 bd 5c 6d 04 be
       -0.28406405 0.18185954 -0.11000119 -0.12932342
000250 b0 a6 95 be 3d 5e 75 3e e4 8d 97 3c 6f c5 68 ba
       -0.29228735 0.2396173 0.018500276 -0.00088795176
000260 65 22 1e 3a 05 ad 8e 3d 67 c5 42 bd 20 ae f7 3c
       0.0006032347 0.069665946 -0.04755154 0.030234396
000270 d0 c1 ab 3d a7 1f 22 be 05 77 bb 3d 06 d2 37 be
       0.08386576 -0.15832387 0.091535605 -0.17951211
000280 04 99 31 bd c4 a2 10 be 28 e2 2a 3d be 25 a3 be
       -0.043358818 -0.1412459 0.041719586 -0.31864733
000290 8f 65 c6 3d 81 ec d0 3d 85 ff 90 be f6 6f 9d be
       0.096873395 0.102013595 -0.28319946 -0.30749482
0002a0 d0 6c 91 3d f2 c2 a4 be d8 2e 12 3d 6d 50 49 be
       0.071008325 -0.3217998 0.035689205 -0.19659586
0002b0 5a a6 c9 be ff ca 9c 3d dc 47 2e be a5 ff 16 bf
       -0.3938473 0.07655906 -0.170196 -0.5898383
0002c0 38 48 62 be 33 3e fc 3d c0 30 95 3e bc 87 41 3e
       -0.22097862 0.12316551 0.29138756 0.18899435
0002d0 25 37 11 3e 63 b1 99 bd eb ed 9e bc 90 1b 22 3e
       0.14181192 -0.07504537 -0.019400558 0.15830827
0002e0 18 61 81 bd 3a c4 a4 3e ed 46 2d 3e 70 a9 10 3e
       -0.06317347 0.3218096 0.16921587 0.14127135
0002f0 83 5e bc 3d 84 cf 40 bd ac a7 82 bd ca 3a 00 be
       0.09197714 -0.047072902 -0.06379637 -0.12522426
000300 b5 32 5a 3d 77 ee 0d be bf d4 9c 3e 19 cc 27 be
       0.053271014 -0.13860498 0.30631062 -0.16386451
000310 e3 ba ad bd 0b 3b 4d be e5 57 3a 3e f8 68 01 bf
       -0.084829114 -0.20042054 0.18197592 -0.50550795
000320 d1 fc 93 3e ef b1 63 bd 50 ab 7c 3d aa 7f 72 be
       0.2890382 -0.055589613 0.061686814 -0.23681512
000330 ab 26 cc be 89 33 31 3d 3f a2 6c be 74 7b 6a bd
       -0.3987325 0.04326204 -0.23108767 -0.05724664
000340 76 6a 80 bd 91 99 20 3e ad 7c c6 3a 35 4c 1f 3d
       -0.06270306 0.15683581 0.0015143357 0.038891036
000350 38 20 13 3d 05 98 8d 3d 84 d7 fd 3d 8d 58 26 3f
       0.035919398 0.06913761 0.12394622 0.6497887
000360 43 41 63 be 2b 62 0a be 7c af a3 bd 2f 09 c9 bd
       -0.22192864 -0.1351401 -0.07992455 -0.09816205
000370 f0 8a 84 3e 40 8f df bd 66 85 f5 bd e8 d1 2d be
       0.2588725 -0.10915995 -0.11988334 -0.16974604
000380 44 b5 6b 3d 5a 6d 3f 3e 60 9f e7 bd 4b f5 06 3e
       0.057545915 0.18694058 -0.11309695 0.1317951
000390 65 e2 9e 3b 7a 15 cc 3e 60 e3 b2 bd 8e 69 7e be
       0.0048487657 0.39860135 -0.087347746 -0.24844953
0003a0 ca 42 6e 3e 4e 24 a7 bc 2d 94 1c 3e ad 51 a4 3e
       0.23267666 -0.020403054 0.152909 0.32093564
0003b0 44 5c 74 be 9b 24 d3 3e 13 11 5a 3d ff 7a 6a be
       -0.23863322 0.41238865 0.05323894 -0.22898482
0003c0 da f5 14 3e 23 42 30 bd 55 cb a1 3d 91 78 49 bd
       0.1454691 -0.043031823 0.07900111 -0.049187247
0003d0 b3 59 67 be aa ab a2 bd 11 b9 6c 3e 07 ee b5 3d
       -0.22592811 -0.079428986 0.23117472 0.08883291
0003e0 cb 0a d9 3d 56 64 74 3e aa 00 95 bd b9 e6 81 be
       0.10597762 0.238664 -0.07275517 -0.2537134
0003f0 ae 6d f3 3d 3d 27 47 bd a3 3b c6 3b fa a8 2a bd
       0.11886154 -0.048621405 0.0060495897 -0.041665055

embedder.emb_rnn.bias_ih_l1 f4 [60]
000000 ca 01 77 3f ab bf 63 3f 6e bc 87 3f 1c f7 87 3f
       0.96487105 0.8896434 1.0604379 1.0622287
000010 aa 4f 6c 3f aa 7c 84 3f 3f ad 6f 3f b9 e4 80 3f
       0.9230906 1.0350544 0.9362373 1.0069801
000020 0d 34 54 3f e2 c5 84 3f 3b d2 84 3f b2 fe 83 3f
       0.82891923 1.0372889 1.0376657 1.0312102
000030 99 c9 86 3f a6 61 7a 3f f4 cf 5f 3f dd 89 79 3f
       1.0530273 0.9780525 0.87426686 0.9747599
000040 27 8a 8c 3f f1 65 6c 3f 8d 35 9e 3f 3c 87 73 3f
       1.0979661 0.9234305 1.2360092 0.95128226
000050 9c 11 6e 3f 19 52 b7 3b cf 2a 3b 3f 58 f9 1e 3f
       0.9299562 0.0055945036 0.73112196 0.6209922
000060 df 69 c9 3e 61 5f 8d 3e 4c 45 17 3f 34 ef 0b 3f
       0.39338586 0.2761183 0.59090114 0.5466187
000070 28 09 e9 3e c3 8f 64 3f 03 b0 9a 3e 02 86 13 3f
       0.45514798 0.8928186 0.3021241 0.57626355
000080 49 32 7c 3f 90 d5 62 3f 4b 6a 18 3f da f3 f3 3e
       0.9851423 0.8860712 0.5953719 0.4764698
000090 bf c3 5c 3f b9 f2 06 3f 70 16 16 3f a3 35 2a 3f
       0.86236185 0.52714115 0.58627987 0.66488093
0000a0 b7 15 86 3f d3 5e 7f 3f 74 dd 86 3f 37 ed 65 3f
       1.0475377 0.99754065 1.0536332 0.89815086
0000b0 3e 66 7c 3f 80 bc 6f 3f 53 04 8b 3f 8b 76 83 3f
       0.9859351 0.93647003 1.0860695 1.0270551
0000c0 a5 78 7d 3f 91 52 61 3f c3 b2 78 3f ab 48 83 3f
       0.99012214 0.8801661 0.9714777 1.0256552
0000d0 7d ed 6c 3f f3 78 7b 3f 6c 0c 6e 3f b5 92 78 3f
       0.9254988 0.9823143 0.92987704 0.9709886
0000e0 6e b6 81 3f cd d4 72 3f f4 67 10 3f 3e 0d 77 3f
       1.0133798 0.9485596 0.5640862 0.9650458

embedder.emb_rnn.bias_hh_l1 f4 [60]
000000 3a e2 0f bd ff 02 e2 bd 67 8d 77 3d eb de 7e 3d
       -0.035127856 -0.11035728 0.060437586 0.06222431
000010 11 82 9d bd e4 9b 0f 3d 09 96 82 bd 78 a5 e4 3b
       -0.07690824 0.03506078 -0.06376273 0.006977733
000020 5a 2f 2f be 81 b5 18 3d 6d 4b 1a 3d 22 ac ff 3c
       -0.17107907 0.03728247 0.037669588 0.031210009
000030 a1 32 59 3d bc ca b3 bc 53 bf 00 be 96 c2 ce bc
       0.0530268 -0.021947257 -0.12572984 -0.02523927
000040 69 a6 c8 3d fe d2 9c bd 82 ad 71 3e 2d 8f 47 bd
       0.09797365 -0.07657431 0.23601344 -0.048720527
000050 93 70 8f bd 64 91 7e bf 32 aa 89 be 70 0d c2 be
       -0.07003894 -0.994406 -0.2688766 -0.37900877
000060 16 4b 1b bf 2b 50 39 bf 96 74 d1 be ad 21 e8 be
       -0.6066145 -0.7238795 -0.4090926 -0.45338193
000070 5f 7b 0b bf 2d 82 db bd 21 a8 32 bf 2f f4 d8 be
       -0.54485124 -0.107181884 -0.69787794 -0.42373797
000080 c0 66 73 bc e9 53 e9 bd 79 2b cf be 34 06 06 bf
       -0.0148560405 -0.11392958 -0.40462855 -0.52353215
000090 da f1 0c be 76 19 f2 be 81 d3 d3 be b0 94 ab be
       -0.13764134 -0.4728505 -0.41372302 -0.33511877
0000a0 05 a5 7e 3d 44 f9 d5 bc 3e d4 36 3d ad 78 c6 bd
       0.062169094 -0.026119836 0.044636004 -0.09690986
0000b0 6b 44 5e bd 94 f2 91 bd d0 84 06 3e d7 8e 01 3d
       -0.054264467 -0.07126346 0.13136601 0.031630363
0000c0 22 b0 0e 3d 20 d1 0a be 74 0d 11 3d 48 aa 58 3d
       0.034835942 -0.13556337 0.03541322 0.052896768
0000d0 d1 bf 8f bd ee 07 6d bc fd 64 8e be 12 3e b8 bd
       -0.07019008 -0.014467223 -0.27811423 -0.08996214
0000e0 ad 11 43 3c dc 98 d5 bd fe 50 ec be 42 15 08 bd
       0.01190607 -0.10429546 -0.46155542 -0.033223398

embedder.emb_rnn.weight_ih_l2 f4 [60, 20]
000000 e6 ad 42 3e 0c 23 ee bd e5 d0 d8 bd 08 f0 df 3e
       0.1901165 -0.116277784 -0.105867185 0.43737817
000010 ae b6 ca 3c 71 09 5d 3c 2a c0 e8 bd a4 ef b2 3d
       0.024745312 0.013491021 -0.113647774 0.08737114
000020 a0 73 fd bc 0e fb 07 be 0d 98 f2 3d 9b 9d 39 3e
       -0.030938923 -0.13279364 0.11845408 0.18126528
000030 78 ef 01 3e 6e 76 b3 ba 64 b4 37 be eb c1 2f 3d
       0.12689006 -0.0013691911 -0.17939907 0.042909544
000040 62 fa d1 bd 02 77 a0 bd c9 c8 19 be 13 ad 25 3f
       -0.10252835 -0.07835199 -0.15018 0.64717215
000050 a8 9d 5b 3d 33 b9 7c be 14 0b 40 3e bb 8f 75 3d
       0.05361715 -0.24680023 0.18754226 0.059951525
000060 46 9a ad 3e 90 4c 4a 3e d5 51 d0 3d d2 55 9d bd
       0.33906764 0.19755769 0.10171858 -0.076823846
000070 3c e5 86 be a6 3c 1b 3e 31 74 fa bb c1 04 75 be
       -0.26346767 0.15159854 -0.0076432456 -0.23927595
000080 1a de a1 3e 9c 19 7e 3e f0 cd e3 3d bf d4 0c 3e
       0.31614763 0.24814457 0.11123264 0.13753031
000090 a9 14 8e 3d b3 16 b2 bd 81 f3 02 be 26 2d 05 3c
       0.06937534 -0.08695736 -0.12788202 0.00812844
0000a0 70 a9 5b be b4 ba 11 39 c9 9d 11 3b cf b6 da 3e
       -0.21451354 0.0001389783 0.0022219291 0.42717597
0000b0 96 9f 8f be 9c 52 06 3d 0e f1 f3 3d 3c 3c b4 be
       -0.28051442 0.032793626 0.11911212 -0.35202205
0000c0 79 82 0e be 2e ef a7 3d 12 df 2f 3e a0 4b 06 3d
       -0.13916959 0.08199917 0.17174938 0.032786965
0000d0 00 aa a9 3d 27 bd 1f be 43 39 f8 bd 21 94 2b 3e
       0.08284378 -0.155995 -0.12120297 0.16755725
0000e0 f8 86 6c 3e 2a 50 99 bd 0c 44 09 3e ec c1 b1 3e
       0.23098361 -0.07485993 0.13404864 0.34718263
0000f0 85 92 83 be 47 93 ab bc 4a 83 b4 bd 60 77 1b 3d
       -0.25697723 -0.02094425 -0.08814104 0.03795564
000100 93 a9 9d be 41 e3 9c 3c 43 a3 47 be f3 9d 6b bd
       -0.30793437 0.019151332 -0.19495873 -0.05752368
000110 80 3c d9 be e2 d1 5f bc 62 60 97 3d 5e 97 97 bd
       -0.4242897 -0.01366088 0.073914304 -0.07401918
000120 0b 42 96 be e1 77 ec bd 93 7d 7c 3d cb df f9 3e
       -0.29347262 -0.115463026 0.061643194 0.48803553
000130 11 43 b6 be 10 6c 60 3d 66 fe d1 3e b8 22 03 3f
       -0.35598043 0.054790556 0.41014403 0.5122485
000140 d3 2f 03 be 01 01 1e 3e 0b 32 54 3e 4b 47 9a be
       -0.12811212 0.1543007 0.20722215 -0.30132517
000150 55 e9 14 3f 80 77 97 3f 3c 66 59 3d e0 a2 92 bd
       0.58168536 1.1833344 0.053076014 -0.07159972
000160 1c d3 06 3d 95 52 ef 3e 62 6e 5c bd 19 73 2a 3e
       0.032916173 0.46742693 -0.053816207 0.16645469
000170 2e 2c c9 3d ce ac 4e 3d 24 d0 1d 3e c5 8d e0 3d
       0.0982288 0.05045777 0.1541143 0.109645404
000180 17 37 96 3e bb c7 27 3c 59 17 67 3e f5 52 35 3f
       0.29338905 0.010240491 0.225675 0.7082971
000190 84 95 9e bd 60 d5 3a be eb e2 1e 3e 7e ad d6 bd
       -0.077433616 -0.18245459 0.1551625 -0.1048231
0001a0 3d 53 bf bd 2a 4d 2e be 8a 17 86 bd 36 88 75 3e
       -0.09342048 -0.17021623 -0.065474585 0.23977742
0001b0 b9 4c 84 3e 60 24 5f 3d 5f 7d 49 3d cd 7a ee 3d
       0.25839785 0.05447805 0.04919183 0.11644516
0001c0 87 10 9c 3e 6f 9e fe 3d 46 4a 85 3e 00 75 11 3f
       0.3048136 0.124325626 0.2603323 0.5681915
0001d0 aa a8 5f be a8 0f 11 3e b1 50 94 3e e5 9b 26 be
       -0.21841684 0.14166129 0.28967813 -0.16270407
0001e0 04 18 8e 3e ee 15 fa 3d 01 5e 83 be db 85 da 3e
       0.27752697 0.12211214 -0.25657657 0.4268025
0001f0 90 f0 2c 3e bc 02 c7 bd 12 9f 3a bd ad e6 44 be
       0.16888642 -0.097173184 -0.045561858 -0.19228621
000200 0b 3f 34 be 6d 70 11 be e2 94 a5 bd c9 6b 14 be
       -0.17602174 -0.14203043 -0.08085038 -0.14494242
000210 29 6e 34 be 7c ec 45 3d be 2a 77 bb d7 0e 8e 3e
       -0.17620148 0.048321232 -0.0037714685 0.27745697
000220 3a f5 09 be d8 70 53 be eb 93 f9 3d 91 a5 c8 3e
       -0.13472453 -0.20648515 0.12186416 0.39188817
000230 17 bd a9 3d 4d 9b 05 be 53 ed 41 3e ee 91 f4 bd
       0.08288019 -0.13047524 0.18938188 -0.119418964
000240 7e c0 9b bd 91 67 15 3e 5e 7c 73 3e 80 bd 2e 3d
       -0.07605074 0.14590289 0.23777911 0.04266119
000250 26 06 84 3e da 68 e4 bd cc ed 0d 3e c8 c0 52 be
       0.2578594 -0.11152811 0.13860244 -0.20581353
000260 ca 8f ca bd b5 0b c5 3c 97 e1 a3 3d 8c c2 bb 3d
       -0.09890707 0.024053434 0.08002012 0.09167966
000270 b7 ff c2 3d 95 6c 14 3e a6 e1 21 3e 4d e5 48 3f
       0.0952143 0.14494546 0.15808734 0.78474885
000280 90 48 4b be d7 8e 9b bd 13 69 89 3e 17 1f a2 be
       -0.19851899 -0.07595604 0.26837978 -0.31664345
000290 17 8c 21 3d 01 8d 75 3e 62 f2 b3 3d 0f fa 22 3e
       0.03944024 0.2397957 0.08786465 0.15915702
0002a0 1e 32 0f 3d 39 f7 97 3c ab 32 a3 bd c2 0f 38 3d
       0.034959905 0.018550502 -0.079686485 0.044936903
0002b0 00 f5 90 bd fc 7b 06 be 91 3b d5 3c ca a1 a0 3d
       -0.0707798 -0.13133234 0.02602938 0.07843359
0002c0 71 47 8e be 19 03 9d 3d 41 98 07 3e b3 1a bb be
       -0.2778888 0.076666065 0.13241674 -0.36543807
0002d0 51 df 09 3e d7 2a 60 bd e0 bb dc 3d 70 99 a7 39
       0.13464095 -0.054728355 0.10778022 0.00031967042
0002e0 73 81 53 be 64 16 2c 3e ce 4a a4 be 7b 52 1b 3e
       -0.2065485 0.16805416 -0.3208832 0.15168183
0002f0 20 58 c3 bd 72 a7 50 3e b9 be 1b be e0 f1 9e be
       -0.09538293 0.20376375 -0.15209474 -0.3104391
000300 4f 9c 1b bd e5 53 ac 3d 70 26 39 bd a6 42 b6 bd
       -0.037990864 0.08414439 -0.045202672 -0.08899431
000310 bc 02 9b be 4d a6 a8 be 8f f2 08 be ad 6e 8d bd
       -0.30275524 -0.32939377 -0.13373779 -0.06905875
000320 b8 56 f8 bd fe a0 f4 be 8e 66 b7 3d 1b 59 1d 3e
       -0.12125915 -0.47779077 0.08955108 0.15366022
000330 64 de 29 be ab 50 c4 3d 3d 27 9d be 69 fa cf bc
       -0.16588742 0.09585699 -0.30694 -0.02538796
000340 6e eb 92 be 09 9a dd 3d c9 fa 3e be a0 20 0e be
       -0.28695244 0.108203955 -0.18650354 -0.13879633
000350 5e ab 40 3e 1d 21 30 3e d4 e8 18 be 44 5e 04 3f
       0.18815371 0.17200132 -0.14932567 0.5170634
000360 dd 11 30 3e 22 9c be 3e 44 c5 03 be a4 5c f7 3c
       0.17194314 0.37228495 -0.1286822 0.030195542
000370 6e b8 8d bd 98 0a 0d 3f b5 1a 90 3d 85 a1 59 3e
       -0.06919943 0.5509429 0.07036344 0.21253021
000380 22 b6 7f 3e aa 09 d1 bd fe c0 28 3e a3 c0 42 3d
       0.24971822 -0.102069214 0.1647987 0.047546994
000390 50 89 dd 3c 80 ba af be 9f f4 35 3e 51 43 83 3e
       0.027043015 -0.34321976 0.17769097 0.25637296
0003a0 45 b3 15 be 61 15 c6 be 34 4b 00 be f8 e7 ff 3e
       -0.14619167 -0.38688186 -0.12528688 0.49981666
0003b0 a1 ec 38 3e d4 ba c8 3e b1 b6 5c be 5d 9f 30 3f
       0.18059017 0.3920504 -0.21554066 0.6899317
0003c0 30 8e d8 bd e0 3d 73 3e ce af 11 3e c2 92 9a be
       -0.10573995 0.23754072 0.1422722 -0.30190092
0003d0 06 2b 49 3e 2d 12 32 3e a2 52 30 3d 71 76 87 3e
       0.19645318 0.17389746 0.043047555 0.2645755
0003e0 d5 ed c6 3d 03 78 44 3c a9 72 17 3e 14 24 28 bd
       0.097133316 0.011991504 0.14789833 -0.04105003
0003f0 fc 61 b3 bd 17 c8 2c 3e c6 2b 52 3d 20 ea 99 3e
       -0.087589234 0.16873203 0.051311277 0.30061436

embedder.emb_rnn.weight_hh_l2 f4 [60, 20]
000000 03 b6 34 bd aa bf 09 bd 7c 11 39 be 3a b0 1f 3e
       -0.044118892 -0.03363005 -0.18073076 0.15594569
000010 d9 70 39 3e 81 75 5b bd de 4b 66 3e 4b 2f 6f be
       0.18109454 -0.053578857 0.22489879 -0.23357885
000020 a2 91 86 be 9a ee 06 3e 26 9e 0f be 70 e6 58 3e
       -0.26282984 0.13176957 -0.14025173 0.21181655
000030 e1 16 04 be c6 c7 dc bd 6a 78 61 bc c9 31 81 3e
       -0.12899353 -0.10780291 -0.013761619 0.25233296
000040 c8 98 e2 bd 02 13 d6 bc 38 6f de 3d 92 ef b4 3e
       -0.11064297 -0.02613211 0.10861057 0.35339028
000050 4d 1f fd 3d 4f 0c 09 3d 2d 05 04 be 91 3e 8e 3c
       0.12359486 0.033459004 -0.128926 0.017363818
000060 20 08 6a 3d e7 ae 6f 3e d3 e2 a6 bd 81 ad be 3d
       0.057136655 0.23406564 -0.08148732 0.09310437
000070 c8 f7 d7 bd ff 5f e9 3d 21 52 88 be 0e 0c 90 3e
       -0.105453074 0.11395263 -0.2662516 0.28134197
000080 82 b4 d4 3e af 58 b5 3d 5d f7 05 be fd d9 90 3d
       0.41543967 0.08854806 -0.13082643 0.07072828
000090 8f 38 54 be 17 bb a9 3e b7 44 2b 3e 22 e0 12 3e
       -0.207247 0.3315055 0.16725431 0.14343312
0000a0 47 8d 57 be ae ce 46 3d 2a b6 82 be d3 35 a3 be
       -0.21049987 0.04853695 -0.25529605 -0.31877002
0000b0 88 a4 31 bd c5 3a d1 bd b5 d3 37 3c b9 3f 37 bd
       -0.0433698 -0.102162875 0.0112199085 -0.044738505
0000c0 9e d0 da bd 24 33 3e 3f 06 ea 6d 3e c0 3e bf 3e
       -0.10684322 0.74296784 0.23233804 0.37352562
0000d0 9b 76 6c 3f bf 87 b1 3c 71 2c 07 3f 3d 1c 07 bf
       0.9236848 0.021671174 0.5280219 -0.52777463
0000e0 6a ba 08 bf 1f 25 07 3f 2e da f9 bb 65 d6 cf 3d
       -0.53409445 0.5279102 -0.007624886 0.101483144
0000f0 12 3c a7 bd 7e df 91 3e de a5 06 bd 80 ed ea be
       -0.081657544 0.28490824 -0.032873027 -0.45884323
000100 f3 b7 74 3e 79 8d 99 be 12 74 2a 3e 98 8e 1d be
       0.23898296 -0.29990748 0.1664584 -0.15386426
000110 05 68 9d 3e 68 cf 83 3e 97 0a 62 be c9 13 4f 3d
       0.30743423 0.25744176 -0.22074352 0.050555978
000120 0e e0 03 3e 42 3a c6 bc 0b 55 da bd f2 8f 92 3e
       0.12878439 -0.024197701 -0.10660752 0.28625447
000130 98 3c 47 be f5 6b 6d 3e 54 27 88 be be 39 c7 3d
       -0.19456708 0.23185714 -0.26592505 0.0972781
000140 f1 f2 fd 3e fc 5e df 3d 50 4d 50 3e e9 12 ff bd
       0.49599412 0.10906789 0.20341992 -0.12454779
000150 1b 71 a9 3e fe b9 74 be e1 50 a6 3e b0 c2 03 be
       0.33094105 -0.23899075 0.3248358 -0.12867236
000160 64 07 2d 3e 48 94 9a be 89 b7 50 be 3b 1e 72 bd
       0.1689735 -0.30191255 -0.20382513 -0.05911086
000170 8b 84 32 be 00 5c 9b 3e e0 e1 e1 be 60 a1 94 be
       -0.17433374 0.30343628 -0.4411764 -0.2902937
000180 0d 60 80 3e 67 f5 ac 3d 88 c6 52 be e3 10 92 bd
       0.2507328 0.08445244 -0.20583546 -0.07132127
000190 d9 f3 80 3b 7d 45 47 3e 47 e4 83 3e ed 47 8d be
       0.003935319 0.19460101 0.257601 -0.27593938
0001a0 13 5c b9 be 00 5f 9b bc 8a 63 63 bc 98 07 d7 3d
       -0.3620306 -0.018966198 -0.013878712 0.10499495
0001b0 85 f1 ee 3d 33 ec 2c 3f 95 75 1e be 32 dc 71 be
       0.1166716 0.6754791 -0.15474541 -0.23619154
0001c0 4d 23 61 3f 8b 7b 34 3f ff 27 70 3f 82 8f ee 3e
       0.8794449 0.7050101 0.9381103 0.46593863
0001d0 49 f6 91 be ad 99 02 3e b1 b4 cf be 0f ce 1c 3f
       -0.28508213 0.12753935 -0.40567544 0.6125192
0001e0 f4 dc d7 3e c6 e6 1a 3e de b2 99 be 97 fd 05 be
       0.4216076 0.15127096 -0.30019277 -0.13085018
0001f0 c0 d1 a3 bd af 9c f5 bd eb 43 fc bd 00 7a 8c 3e
       -0.07998991 -0.11992776 -0.12317642 0.2743683
000200 c0 48 b9 3d 32 32 0a be a7 5c 0b 3e b1 3d a2 3c
       0.09047079 -0.1349571 0.13609563 0.019804807
000210 03 c7 a5 3e 0c 15 72 be f6 c6 76 3e 25 14 74 bd
       0.32378396 -0.23640841 0.24099335 -0.059589524
000220 8a 41 dd bd d9 c8 cb be f7 5d 1a be 71 9b d3 3e
       -0.10803516 -0.39801672 -0.15074907 0.4132953
000230 3e 9f 86 3e 8a cd ae 3e bc 54 9b 3e 33 5f e7 bd
       0.26293367 0.3414119 0.30338085 -0.11297455
000240 3f b0 3d be 66 8b 03 3e 9c 30 7c be f8 5e 3f 3d
       -0.18524264 0.12846145 -0.24627918 0.04672143
000250 7f 11 82 3e e1 5d 59 bc 9f c6 19 3e cf c1 0c 3d
       0.25403973 -0.013267011 0.15017174 0.034364518
000260 8d f2 36 3d d6 a7 d9 3e 63 fe 87 bc 26 2e 54 be
       0.04466491 0.4251086 -0.016600793 -0.20720729
000270 b5 d1 e8 3e 2a 81 a1 3e 38 d9 42 be 45 a7 e5 bd
       0.45472494 0.31543857 -0.19028175 -0.11213545
000280 69 e2 d2 3c 76 c3 02 bc ee a5 d0 bd 6a 12 ae 3c
       0.025742726 -0.007981172 -0.101878986 0.021249015
000290 a8 2b 8c 3d ab 9c 93 3d 99 ec 89 3e 74 d7 04 3d
       0.06844264 0.072076164 0.26938322 0.032432035
0002a0 4e ac 26 3e ea a2 89 bd 61 4e 8b bd 52 37 5f 3d
       0.16276667 -0.067205265 -0.06802059 0.054496117
0002b0 98 c0 78 3e f8 90 8f 3d c1 bb 4c be b0 d8 af 3d
       0.24292219 0.070100725 -0.19993497 0.08586252
0002c0 bb 52 c7 bd cf 36 a1 bb 97 81 3f 3e 29 2b 8f be
       -0.097325765 -0.004919864 0.18701778 -0.27962616
0002d0 00 cf 75 bd 83 e2 96 3e 97 e4 79 3c d2 e9 20 3e
       -0.060011864 0.2946969 0.015252254 0.15714195
0002e0 a2 ff 79 be 8d 24 bf bd 8f ed 5c be 3a 47 8c be
       -0.24413922 -0.093331434 -0.21574996 -0.27398092
0002f0 a9 b8 07 3e d9 6f 34 3e bf 54 3d 3e 62 83 14 be
       0.13254036 0.17620791 0.1848936 -0.14503244
000300 84 07 93 3e 72 8d 9b be fb c8 95 be 95 9e de bd
       0.2871667 -0.30381352 -0.29254898 -0.10870091
000310 33 80 7a 3e 56 fa 97 3e ff 39 66 be 15 fa f6 bd
       0.24462967 0.2968318 -0.22483061 -0.12059418
000320 44 f7 6c 3e 9e 55 08 3f bc ab f4 3c 2b a3 3c be
       0.231412 0.5325564 0.029867046 -0.18421619
000330 ea e7 34 3c 47 ec 08 3e 39 89 ac 3e 1d a9 9d 3d
       0.011041621 0.13371383 0.33698443 0.076982714
000340 62 c1 8e bd 84 af fd bd fc a5 a6 3d 60 a9 ae 3e
       -0.069704786 -0.123869926 0.08137128 0.34113598
000350 31 43 ba 3d 2f f7 77 3e e3 b9 03 bf ad 5e 50 bd
       0.09094847 0.24215387 -0.51455516 -0.05087154
000360 a8 f5 a9 3d 32 22 57 bd 9f a1 5f bd 52 d8 92 3e
       0.08298808 -0.052522846 -0.054597493 0.28680664
000370 cf db cb bc 83 b6 32 3f 01 dc d4 be e8 0c bc be
       -0.024885086 0.6980974 -0.415741 -0.36728597
000380 a5 dd be be 0a 3b 84 3d b2 67 a2 ba f8 79 59 be
       -0.37278476 0.06456573 -0.0012390523 -0.21237934
000390 ad 6f 00 bf cb 83 bc 3d 55 58 cc bd 9d 99 37 3e
       -0.50170404 0.09204825 -0.099777855 0.17929693
0003a0 47 11 fa 3e 80 25 54 bd 67 fe 87 bf 8a 83 79 3e
       0.48841307 -0.051793575 -1.0624512 0.24366584
0003b0 b6 f6 0a 3f db a2 34 3e 50 3d 62 3d 58 53 15 3e
       0.542827 0.1764025 0.055234253 0.14582574
0003c0 2c a7 3c bd fb 86 b9 bc 16 5d 1c 3e fe 82 c0 3e
       -0.046057865 -0.022647372 0.15269884 0.3759994
0003d0 b2 14 fd bd 01 ed 29 3c 1a 7c 2d bd fc 62 b4 bd
       -0.12357463 0.010371448 -0.04235468 -0.08807942
0003e0 6a b7 4a 3e 0d b3 99 be d4 30 45 bd be 81 f9 bd
       0.1979653 -0.30019417 -0.04814227 -0.121829495
0003f0 76 bd ad 3e fe 12 8e 3e c7 2e 8c 3e 64 4c 8f 3e
       0.3393361 0.27748865 0.27379438 0.2798797

embedder.emb_rnn.bias_ih_l2 f4 [60]
000000 2e 4f 82 3f 69 99 7a 3f 3d 9a 60 3f 68 2c 51 3f
       1.0180414 0.97890335 0.8773535 0.81708384
000010 63 d1 6c 3f 6c 24 80 3f 10 ef 7b 3f 59 24 8b 3f
       0.92507 1.0011115 0.98411655 1.0870467
000020 4f b9 80 3f 90 10 6e 3f 28 95 75 3f 64 57 74 3f
       1.0056552 0.9299402 0.9593072 0.9544585
000030 b9 4b 8e 3f 7b 77 6b 3f 78 2f 5b 3f d1 3e 89 3f
       1.1116859 0.9197919 0.85619307 1.0722295
000040 f0 1b 5b 3f e9 7b 89 3f 97 ab 79 3f 54 90 62 3f
       0.85589504 1.0740939 0.9752745 0.8850148
000050 15 2b 7a 3f e3 78 14 3f 8f 17 83 3f 7b cb 71 3f
       0.9772199 0.5799696 1.0241565 0.9445111
000060 bb a4 0b 3f bd 4b 3e 3f 73 4d 1a 3f f7 66 4e 3f
       0.54548234 0.7433432 0.6027443 0.8062586
000070 fc 09 27 3f 95 b0 9b 3e 5a e3 35 3f 0c 7d 52 3f
       0.6524961 0.3040816 0.71050036 0.82222056
000080 08 07 4f 3f eb 38 4c 3f 4c 14 fa 3e 03 e4 0f 3f
       0.80870104 0.7977435 0.4884361 0.56207293
000090 6a 70 58 3f 72 ea 25 3f d1 6d 16 3f 1d 0d 19 3f
       0.8454653 0.6481086 0.58761317 0.59785634
0000a0 29 01 73 3f e0 11 7b 3f 6f 0f 7d 3f 71 61 78 3f
       0.94923645 0.9807415 0.98851675 0.97023684
0000b0 02 d6 77 3f 37 29 62 3f 37 bc 6d 3f 90 14 78 3f
       0.96810925 0.8834414 0.9286532 0.96906376
0000c0 84 a3 67 3f bd b0 6b 3f 75 82 70 3f 77 5a 59 3f
       0.9048388 0.92066556 0.9394906 0.84903663
0000d0 45 ba 70 3f a9 8d 66 3f bf 1f 6d 3f 83 07 69 3f
       0.94034225 0.90059906 0.92626566 0.91027087
0000e0 d2 5e 7c 3f e4 47 6d 3f 20 d8 76 3f b0 16 6a 3f
       0.98582184 0.9268782 0.9642353 0.9144087
